edgetpu-models/models/blackscholes/model.tflite (tflite, 3384 bytes, 3 tensors)

sequential/dense_2/MatMul i1 [1, 16] scale=0.018503623 zero_point=0
-0.55510867 -0.61061954 1.0917138 1.2582464 0.7401449 0.7216413 0.3885761 -0.14802898
0.57361233 0.51810145 2.34996 0.22204348 0.94368476 0.1665326 0.7586486 0.05551087
00000000: e2df 3b44 2827 15f8 1f1c 7f0c 3309 2903

sequential/dense_1/MatMul i1 [16, 16] scale=0.03603637 zero_point=0
0.7928001 1.5135275 0.93694556 0.4324364 1.2252365 0.8648728 1.4414548 -0.4324364
-0.5405455 1.1531638 1.1531638 1.9820002 1.369382 1.8378547 -1.081091 1.8378547
-0.8288365 -0.28829095 0.1081091 -1.369382 0.14414547 -0.64865464 -1.8738911 -1.4054184
-1.2252365 0.07207274 -1.2973093 -1.1531638 -0.18018185 0.2162182 -0.25225458 0.07207274
0.0 -0.50450915 -0.61261827 -1.1171274 0.75676376 -0.8648728 3.6396732 1.3333457
0.50450915 -1.9459639 -1.369382 0.1081091 -1.9820002 -0.5405455 -0.64865464 -1.1531638
-0.39640006 -0.4324364 0.07207274 -1.081091 -1.0450547 -0.9729819 3.423455 0.18018185
-0.5405455 -3.1712005 -1.4054184 -0.64865464 -0.64865464 0.03603637 -0.64865464 -0.50450915
-0.25225458 -0.1081091 -0.75676376 0.9009092 -0.8648728 -0.32432732 1.3333457 -0.2162182
-0.07207274 -2.5946186 -0.4324364 -0.64865464 -0.61261827 -1.2612729 -0.4324364 -0.5765819
0.03603637 -0.1081091 -0.3603637 -0.1081091 -0.28829095 -0.4324364 0.2162182 0.03603637
-0.28829095 -1.5495639 -0.03603637 -0.2162182 -0.93694556 -1.0090183 -0.5765819 -1.1171274
0.0 -0.32432732 -0.3603637 -0.32432732 -0.3603637 -0.32432732 -0.3603637 -0.2162182
-1.0090183 0.0 -0.2162182 -0.28829095 -0.8288365 -0.32432732 -0.9729819 -0.5765819
-0.39640006 -0.684691 -0.8288365 -0.9009092 -0.1081091 -0.7207274 -1.369382 -1.0090183
-1.081091 0.39640006 -1.081091 -0.5765819 -0.7207274 0.14414547 -0.2162182 -0.03603637
-0.32432732 -0.32432732 -0.684691 0.8288365 -0.64865464 -0.28829095 0.25225458 -0.50450915
0.0 -1.5495639 -0.14414547 -0.61261827 -0.4324364 -0.684691 -0.9729819 -0.75676376
-0.1081091 -0.5765819 -0.25225458 -0.8288365 -0.25225458 -0.2162182 -0.14414547 -0.3603637
-0.8288365 -0.14414547 -0.46847278 0.1081091 -0.684691 -0.18018185 -1.081091 -0.7207274
0.61261827 1.2973093 -0.7207274 4.5766187 -1.5135275 -0.8288365 -3.5676005 -1.657673
-0.61261827 -1.5135275 1.8018184 -1.1171274 -1.5856003 -0.14414547 -1.4414548 -0.32432732
-0.07207274 -0.61261827 -0.1081091 -0.8648728 -0.9009092 -0.39640006 -0.4324364 -0.8648728
-0.9009092 1.0090183 -0.4324364 -0.3603637 -0.64865464 -0.32432732 -1.1171274 -0.75676376
0.14414547 -0.14414547 -0.5405455 1.0090183 -1.081091 -0.9009092 0.7207274 0.03603637
-0.07207274 -2.9910185 0.0 -0.9009092 -1.2252365 -1.0450547 -0.18018185 -0.9009092
-0.2162182 -0.28829095 -0.75676376 -1.1171274 0.1081091 -0.32432732 -0.9009092 -0.684691
-0.93694556 0.5405455 -0.28829095 -0.25225458 -0.64865464 -0.28829095 -0.7207274 -0.50450915
-0.18018185 -0.50450915 -0.7928001 0.9009092 -1.3333457 -0.14414547 -0.32432732 -0.9009092
-0.5765819 -1.369382 0.4324364 -0.07207274 -0.684691 -0.7207274 -0.61261827 -0.9729819
-0.5765819 -0.4324364 -0.7207274 -0.4324364 0.18018185 -0.93694556 -0.75676376 -1.0450547
-0.50450915 0.18018185 -0.39640006 -0.50450915 -0.2162182 0.03603637 -0.7207274 -0.39640006
00000000: 162a 1a0c 2218 28f4 f120 2037 2633 e233
00000010: e9f8 03da 04ee ccd9 de02 dce0 fb06 f902
00000020: 00f2 efe1 15e8 6525 0eca da03 c9f1 eee0
00000030: f5f4 02e2 e3e5 5f05 f1a8 d9ee ee01 eef2
00000040: f9fd eb19 e8f7 25fa feb8 f4ee efdd f4f0
00000050: 01fd f6fd f8f4 0601 f8d5 fffa e6e4 f0e1
00000060: 00f7 f6f7 f6f7 f6fa e400 faf8 e9f7 e5f0
00000070: f5ed e9e7 fdec dae4 e20b e2f0 ec04 faff
00000080: f7f7 ed17 eef8 07f2 00d5 fcef f4ed e5eb
00000090: fdf0 f9e9 f9fa fcf6 e9fc f303 edfb e2ec
000000a0: 1124 ec7f d6e9 9dd2 efd6 32e1 d4fc d8f7
000000b0: feef fde8 e7f5 f4e8 e71c f4f6 eef7 e1eb
000000c0: 04fc f11c e2e7 1401 fead 00e7 dee3 fbe7
000000d0: faf8 ebe1 03f7 e7ed e60f f8f9 eef8 ecf2
000000e0: fbf2 ea19 dbfc f7e7 f0da 0cfe edec efe5
000000f0: f0f4 ecf4 05e6 ebe3 f205 f5f2 fa01 ecf5

sequential/dense/MatMul i1 [16, 6] scale=0.05076544 zero_point=0
-0.8630125 0.15229632 -0.40612352 -0.7614816 -0.30459264 -0.7107161 -0.65995073 0.96454334
-0.05076544 -0.81224704 -1.8783213 -0.7614816 -0.30459264 -1.269136 0.0 -2.436741
2.2844448 0.10153088 -4.873482 3.807408 -0.91377795 -1.726025 -0.5584198 0.30459264
0.6091853 -1.9798522 -1.9290867 -0.15229632 -2.2844448 0.7614816 -0.81224704 -1.1676052
-0.65995073 -2.7920992 0.7614816 0.6091853 3.908939 -5.1273093 0.2538272 -3.2489882
-1.1168396 -0.20306176 1.4721978 -0.40612352 -0.65995073 0.81224704 0.2538272 -3.5028152
-0.65995073 0.45688897 -0.40612352 0.91377795 0.35535806 -1.7767904 -3.4012845 3.2489882
-2.7920992 0.2538272 -0.15229632 -6.447211 -2.5890374 1.4721978 0.10153088 -2.7920992
-1.1676052 -0.65995073 0.05076544 -1.9798522 -0.10153088 1.9290867 -1.3706669 -0.81224704
0.2538272 -0.91377795 4.3150625 -0.15229632 -1.3199015 3.0459263 0.45688897 0.91377795
-0.5584198 -3.5028152 -1.0660743 0.20306176 1.9290867 -0.10153088 0.45688897 0.7107161
0.7107161 0.5076544 2.0306177 -1.8783213 -0.5584198 -1.0660743 0.05076544 1.2183706
00000000: ef03 f8f1 faf2 f313 fff0 dbf1 fae7 00d0
00000010: 2d02 a04b eede f506 0cd9 dafd d30f f0e9
00000020: f3c9 0f0c 4d9b 05c0 eafc 1df8 f310 05bb
00000030: f309 f812 07dd bd40 c905 fd81 cd1d 02c9
00000040: e9f3 01d9 fe26 e5f0 05ee 55fd e63c 0912
00000050: f5bb eb04 26fe 090e 0e0a 28db f5eb 0118
