tf/sobel/model.tflite (tflite, 4488 bytes, 3 tensors)

sequential/dense_2/MatMul i1 [1, 32] scale=0.0032156766 zero_point=0
0	0xef	-0.054666504
1	0xfd	-0.00964703
2	0xce	-0.16078383
3	0x63	0.31835198
4	0x00	0.0
5	0x19	0.08039191
6	0xa7	-0.28619522
7	0x7f	0.40839094
8	0xe4	-0.09003895
9	0x9a	-0.32799903
10	0x1f	0.099685974
11	0xc6	-0.18650925
12	0x7a	0.39231256
13	0x8f	-0.36337146
14	0x6e	0.35372442
15	0x69	0.33764604
16	0x20	0.10290165
17	0x61	0.31192064
18	0xe8	-0.07717624
19	0x96	-0.34086174
20	0x1e	0.0964703
21	0x0f	0.04823515
22	0x29	0.13184275
23	0x5d	0.29905793
24	0xcd	-0.16399951
25	0x57	0.27976388
26	0x8a	-0.37944984
27	0xa3	-0.29905793
28	0x55	0.2733325
29	0xf0	-0.051450826
30	0x7c	0.3987439
31	0x70	0.3601558

sequential/dense_1/MatMul i1 [32, 32] scale=0.0026477696 zero_point=0
0	0x32	0.13238849
1	0xe8	-0.06354647
2	0xf8	-0.021182157
3	0x2a	0.11120632
4	0x9a	-0.2700725
5	0xd5	-0.113854095
6	0x08	0.021182157
7	0x21	0.0873764
8	0xb8	-0.1906394
9	0x2e	0.121797405
10	0x0f	0.039716545
11	0x74	0.30714127
12	0x54	0.22241265
13	0x10	0.042364314
14	0xd7	-0.10855856
15	0x37	0.14562733
16	0x59	0.2356515
17	0x9f	-0.25683364
18	0x64	0.26477697
19	0xa4	-0.24359481
20	0x15	0.05560316
21	0x2b	0.113854095
22	0x6c	0.28595912
23	0x0d	0.034421004
24	0x1d	0.07678532
25	0xb2	-0.20652603
26	0x75	0.30978906
27	0xa8	-0.23300374
28	0xc3	-0.16151395
29	0xeb	-0.05560316
30	0x68	0.27536803
31	0xaa	-0.22770819
32	0xb2	-0.20652603
33	0x0b	0.029125467
34	0xcb	-0.14033179
35	0x3c	0.15886618
36	0x09	0.023829926
37	0xfc	-0.010591079
38	0xff	-0.0026477696
39	0xa9	-0.23035596
40	0xf8	-0.021182157
41	0xc1	-0.16680948
42	0xb1	-0.2091738
43	0xa3	-0.24624258
44	0x5c	0.24359481
45	0x2b	0.113854095
46	0xbf	-0.17210503
47	0xa5	-0.24094704
48	0xa7	-0.2356515
49	0x49	0.19328718
50	0x66	0.2700725
51	0xc1	-0.16680948
52	0x16	0.058250934
53	0xfd	-0.007943309
54	0xb5	-0.19858272
55	0xb3	-0.20387827
56	0x06	0.015886618
57	0x5c	0.24359481
58	0xba	-0.18534388
59	0xc8	-0.1482751
60	0xdb	-0.097967476
61	0x73	0.30449352
62	0xb8	-0.1906394
63	0x4c	0.2012305
64	0x9b	-0.26742473
65	0x2c	0.11650187
66	0xea	-0.058250934
67	0x78	0.31773236
68	0x37	0.14562733
69	0xd5	-0.113854095
70	0xc6	-0.15357064
71	0xbf	-0.17210503
72	0x9c	-0.26477697
73	0xb8	-0.1906394
74	0x5b	0.24094704
75	0xfa	-0.015886618
76	0xc0	-0.16945726
77	0xae	-0.21711712
78	0x4e	0.20652603
79	0x4f	0.2091738
80	0x4a	0.19593495
81	0xaa	-0.22770819
82	0x3f	0.16680948
83	0xea	-0.058250934
84	0xc3	-0.16151395
85	0x46	0.18534388
86	0x17	0.060898703
87	0x04	0.010591079
88	0xcb	-0.14033179
89	0xb3	-0.20387827
90	0x21	0.0873764
91	0x49	0.19328718
92	0xe1	-0.082080856
93	0x6b	0.28331134
94	0xce	-0.13238849
95	0xe9	-0.060898703
96	0xca	-0.14297956
97	0xf3	-0.034421004
98	0x64	0.26477697
99	0x4f	0.2091738
100	0x28	0.105910785
101	0xba	-0.18534388
102	0xcb	-0.14033179
103	0x9a	-0.2700725
104	0x33	0.13503624
105	0xbb	-0.1826961
106	0x8e	-0.30184573
107	0x04	0.010591079
108	0xc4	-0.15886618
109	0x0b	0.029125467
110	0xaf	-0.21446934
111	0x02	0.0052955393
112	0xf3	-0.034421004
113	0xc7	-0.15092286
114	0xa0	-0.2541859
115	0x25	0.097967476
116	0x09	0.023829926
117	0x91	-0.29390243
118	0xd9	-0.10326301
119	0xaa	-0.22770819
120	0xd5	-0.113854095
121	0xd9	-0.10326301
122	0x52	0.21711712
123	0xcd	-0.13503624
124	0x5c	0.24359481
125	0x3e	0.16416171
126	0xf5	-0.029125467
127	0xc6	-0.15357064
128	0x56	0.22770819
129	0x20	0.08472863
130	0x10	0.042364314
131	0x17	0.060898703
132	0x63	0.2621292
133	0xf9	-0.018534388
134	0x39	0.15092286
135	0xdb	-0.097967476
136	0xbe	-0.1747528
137	0xb9	-0.18799165
138	0xd3	-0.11914963
139	0x32	0.13238849
140	0x17	0.060898703
141	0x91	-0.29390243
142	0x90	-0.2965502
143	0x57	0.23035596
144	0xe1	-0.082080856
145	0xae	-0.21711712
146	0x0f	0.039716545
147	0xdd	-0.09267194
148	0xb7	-0.19328718
149	0xf6	-0.026477696
150	0x11	0.045012083
151	0xa1	-0.25153813
152	0xc8	-0.1482751
153	0x50	0.21182157
154	0x66	0.2700725
155	0x8a	-0.31243682
156	0x93	-0.28860688
157	0xb8	-0.1906394
158	0xad	-0.21976487
159	0xbf	-0.17210503
160	0x01	0.0026477696
161	0x28	0.105910785
162	0x28	0.105910785
163	0x25	0.097967476
164	0xae	-0.21711712
165	0xee	-0.04765985
166	0xfa	-0.015886618
167	0xc9	-0.14562733
168	0x94	-0.28595912
169	0x42	0.1747528
170	0x42	0.1747528
171	0xd6	-0.11120632
172	0x6d	0.28860688
173	0x86	-0.3230279
174	0x55	0.22506042
175	0x2f	0.12444517
176	0x8e	-0.30184573
177	0x4c	0.2012305
178	0xd9	-0.10326301
179	0x9b	-0.26742473
180	0xde	-0.090024166
181	0x29	0.10855856
182	0xe2	-0.07943309
183	0x20	0.08472863
184	0xdd	-0.09267194
185	0xf6	-0.026477696
186	0xc5	-0.15621841
187	0x3f	0.16680948
188	0x4d	0.20387827
189	0x61	0.25683364
190	0x2d	0.11914963
191	0x6b	0.28331134
192	0x6e	0.29125467
193	0x96	-0.28066358
194	0xff	-0.0026477696
195	0x31	0.12974072
196	0x36	0.14297956
197	0x35	0.14033179
198	0xab	-0.22506042
199	0xb6	-0.19593495
200	0xaf	-0.21446934
201	0x54	0.22241265
202	0xf5	-0.029125467
203	0xe2	-0.07943309
204	0xdc	-0.0953197
205	0x03	0.007943309
206	0x7c	0.32832342
207	0x72	0.30184573
208	0x0e	0.037068777
209	0x2e	0.121797405
210	0xfa	-0.015886618
211	0x6b	0.28331134
212	0x38	0.1482751
213	0xbe	-0.1747528
214	0x97	-0.27801582
215	0xff	-0.0026477696
216	0x4e	0.20652603
217	0x03	0.007943309
218	0x34	0.13768402
219	0xc6	-0.15357064
220	0x98	-0.27536803
221	0xec	-0.052955393
222	0xeb	-0.05560316
223	0x25	0.097967476
224	0xcd	-0.13503624
225	0x66	0.2700725
226	0x3b	0.15621841
227	0x8d	-0.30449352
228	0xdc	-0.0953197
229	0x94	-0.28595912
230	0x06	0.015886618
231	0xc2	-0.16416171
232	0xcf	-0.12974072
233	0xd3	-0.11914963
234	0x9e	-0.25948143
235	0xd4	-0.11650187
236	0xb8	-0.1906394
237	0x2b	0.113854095
238	0x00	0.0
239	0xf3	-0.034421004
240	0x20	0.08472863
241	0xca	-0.14297956
242	0x26	0.10061525
243	0xce	-0.13238849
244	0x58	0.23300374
245	0x24	0.0953197
246	0xa4	-0.24359481
247	0xe0	-0.08472863
248	0x99	-0.27272028
249	0xc9	-0.14562733
250	0x58	0.23300374
251	0x69	0.27801582
252	0x03	0.007943309
253	0x37	0.14562733
254	0x59	0.2356515
255	0xde	-0.090024166

sequential/dense/MatMul i1 [32, 9] scale=0.0039342837 zero_point=0
0	0x34	0.20458275
1	0x9f	-0.38162553
2	0xbc	-0.2675313
3	0x3e	0.24392559
4	0x5f	0.37375695
5	0x45	0.27146557
6	0xb0	-0.31474268
7	0x04	0.015737135
8	0x1e	0.118028514
9	0xde	-0.13376565
10	0xd8	-0.15737134
11	0x59	0.35015124
12	0xe1	-0.12196279
13	0xd8	-0.15737134
14	0x36	0.21245132
15	0x16	0.086554244
16	0xf9	-0.027539987
17	0xa8	-0.34621698
18	0x28	0.15737134
19	0xfd	-0.011802851
20	0xa5	-0.35801983
21	0xb8	-0.28326842
22	0xce	-0.1967142
23	0xe3	-0.11409423
24	0xa0	-0.37769124
25	0xf7	-0.035408553
26	0x55	0.33441412
27	0xf6	-0.039342836
28	0xf8	-0.03147427
29	0x46	0.27539986
30	0xae	-0.32261127
31	0x02	0.0078685675
32	0x52	0.32261127
33	0xce	-0.1967142
34	0xe2	-0.118028514
35	0xe7	-0.0983571
36	0xe4	-0.11015995
37	0x32	0.1967142
38	0xc7	-0.22425418
39	0x10	0.06294854
40	0x3b	0.23212273
41	0xf5	-0.043277122
42	0x08	0.03147427
43	0x08	0.03147427
44	0xb9	-0.27933416
45	0xe8	-0.09442281
46	0xdb	-0.1455685
47	0x6b	0.42096835
48	0x6a	0.4170341
49	0xdc	-0.14163421
50	0xf6	-0.039342836
51	0x3e	0.24392559
52	0xfa	-0.023605702
53	0xf1	-0.059014257
54	0xfd	-0.011802851
55	0x39	0.22425418
56	0xbb	-0.27146557
57	0xa4	-0.3619541
58	0x5a	0.35408553
59	0xcc	-0.20458275
60	0xe4	-0.11015995
61	0x2e	0.18097705
62	0x41	0.25572845
63	0x26	0.14950278
64	0x51	0.31867698
65	0xa4	-0.3619541
66	0xdf	-0.12983136
67	0x02	0.0078685675
68	0xb3	-0.30293986
69	0xa4	-0.3619541
70	0xc3	-0.2399913
71	0xbd	-0.263597
72	0x1e	0.118028514
73	0xcb	-0.20851704
74	0x00	0.0
75	0xe1	-0.12196279
76	0xb5	-0.29507127
77	0xaa	-0.3383484
78	0x2b	0.1691742
79	0xf1	-0.059014257
80	0x29	0.16130564
81	0x5d	0.3658884
82	0xff	-0.0039342837
83	0x03	0.011802851
84	0x25	0.1455685
85	0x17	0.09048852
86	0xb6	-0.291137
87	0xe2	-0.118028514
88	0xe3	-0.11409423
89	0xb9	-0.27933416
90	0x16	0.086554244
91	0xbb	-0.27146557
92	0x41	0.25572845
93	0x49	0.28720272
94	0x05	0.019671418
95	0x33	0.20064847
96	0x4b	0.29507127
97	0x60	0.37769124
98	0x3b	0.23212273
99	0x0a	0.039342836
100	0xf2	-0.055079974
101	0x09	0.035408553
102	0xe6	-0.102291375
103	0xde	-0.13376565
104	0xee	-0.070817105
105	0xa8	-0.34621698
106	0xff	-0.0039342837
107	0xec	-0.07868567
108	0xb3	-0.30293986
109	0x59	0.35015124
110	0x13	0.07475139
111	0xdd	-0.13769993
112	0xf9	-0.027539987
113	0x96	-0.4170341
114	0xfb	-0.019671418
115	0x19	0.0983571
116	0x94	-0.42490265
117	0x21	0.12983136
118	0xe8	-0.09442281
119	0x13	0.07475139
120	0x03	0.011802851
121	0xeb	-0.08261996
122	0x56	0.3383484
123	0xe6	-0.102291375
124	0x09	0.035408553
125	0x31	0.1927799
126	0x4a	0.291137
127	0x14	0.07868567
128	0xe4	-0.11015995
129	0x73	0.45244262
130	0xc7	-0.22425418
131	0x64	0.3934284
132	0xf2	-0.055079974
133	0x16	0.086554244
134	0x14	0.07868567
135	0xe7	-0.0983571
136	0x63	0.3894941
137	0xd2	-0.18097705
138	0x3f	0.24785988
139	0xd1	-0.18491134
140	0x5e	0.36982268
141	0x30	0.18884562
142	0xd3	-0.17704277
143	0x3a	0.22818846
144	0x7f	0.49965402
145	0xc4	-0.23605703
146	0x5e	0.36982268
147	0xc2	-0.24392559
148	0x4c	0.29900557
149	0x16	0.086554244
150	0x33	0.20064847
151	0xb9	-0.27933416
152	0xda	-0.14950278
153	0x25	0.1455685
154	0xd4	-0.17310849
155	0xd2	-0.18097705
156	0xa8	-0.34621698
157	0x1c	0.11015995
158	0xc5	-0.23212273
159	0x36	0.21245132
160	0x51	0.31867698
161	0x3a	0.22818846
162	0x6b	0.42096835
163	0x3c	0.23605703
164	0xd2	-0.18097705
165	0xb8	-0.28326842
166	0xd1	-0.18491134
167	0x4d	0.30293986
168	0xb3	-0.30293986
169	0xf7	-0.035408553
170	0xe7	-0.0983571
171	0xa9	-0.34228268
172	0xae	-0.32261127
173	0xf1	-0.059014257
174	0x00	0.0
175	0xba	-0.27539986
176	0xd6	-0.16523992
177	0xac	-0.33047983
178	0x06	0.023605702
179	0x07	0.027539987
180	0x9c	-0.3934284
181	0xc7	-0.22425418
182	0xdf	-0.12983136
183	0xd0	-0.18884562
184	0x03	0.011802851
185	0xbb	-0.27146557
186	0xde	-0.13376565
187	0xae	-0.32261127
188	0xb0	-0.31474268
189	0xdc	-0.14163421
190	0x27	0.15343706
191	0x8e	-0.44850835
192	0xfb	-0.019671418
193	0xe2	-0.118028514
194	0xea	-0.086554244
195	0x22	0.13376565
196	0xed	-0.07475139
197	0xab	-0.33441412
198	0x50	0.31474268
199	0xb4	-0.29900557
200	0xff	-0.0039342837
201	0x32	0.1967142
202	0xbf	-0.25572845
203	0xd5	-0.1691742
204	0xb9	-0.27933416
205	0x4e	0.30687413
206	0x30	0.18884562
207	0x93	-0.42883694
208	0xa0	-0.37769124
209	0xe8	-0.09442281
210	0x05	0.019671418
211	0x26	0.14950278
212	0x3b	0.23212273
213	0xe6	-0.102291375
214	0xf5	-0.043277122
215	0x23	0.13769993
216	0x35	0.20851704
217	0x04	0.015737135
218	0x76	0.46424547
219	0xca	-0.21245132
220	0xa5	-0.35801983
221	0xf4	-0.047211405
222	0x5a	0.35408553
223	0xd5	-0.1691742
224	0x05	0.019671418
225	0xc0	-0.25179416
226	0x2f	0.18491134
227	0xce	-0.1967142
228	0xf1	-0.059014257
229	0x29	0.16130564
230	0xd9	-0.15343706
231	0x45	0.27146557
232	0x29	0.16130564
233	0x09	0.035408553
234	0x60	0.37769124
235	0x51	0.31867698
236	0x78	0.47211406
237	0x06	0.023605702
238	0xdd	-0.13769993
239	0x3c	0.23605703
240	0xaf	-0.31867698
241	0xcb	-0.20851704
242	0x5c	0.3619541
243	0x85	-0.4839169
244	0x01	0.0039342837
245	0xdd	-0.13769993
246	0x12	0.070817105
247	0x48	0.28326842
248	0x49	0.28720272
249	0xc9	-0.2163856
250	0xb2	-0.30687413
251	0xfd	-0.011802851
252	0x22	0.13376565
253	0xf7	-0.035408553
254	0x01	0.0039342837
255	0xd7	-0.16130564
