tf/blackscholes/model.tflite (tflite, 87088 bytes, 4 tensors)

sequential/dense_3/MatMul i1 [1, 200] scale=0.001228964 zero_point=0
00000000: 99de 33a5 ee06 9d1d 18db 8cbd 85c0 dddc
00000010: 2e25 c4f6 d3dd d627 d51b 23dc 2038 389c
00000020: 172c 17ca 1ad7 bfe8 1cbe 17d4 8516 df28
00000030: d31a 8a29 dc37 e4e9 371a 1c19 1b22 d29f
00000040: 281f 8832 defe cfdd 101d fb21 1d13 2e2c
00000050: 1b24 adbf 1523 3a1f 172a e9d2 d525 16cb
00000060: d318 32a3 2a2d d91b 2517 172d 1fd1 27ca
00000070: c726 70df 19f1 10c1 293b cf25 2113 1681
00000080: 9516 d8a8 1c22 0e11 10b4 d9c2 2bcb ded4
00000090: 1bda a7cf 60f4 22d1 2417 163a 1a9a 28dc
000000a0: 21aa 2a6e 191a ad19 26bc 18ce 1a1b 1923
000000b0: 1d21 1dda c01f 1c4d 281d d7d1 baef 0c22
000000c0: c419 a015 2718 50aa
-0.1265833 -0.041784775 0.06267716 -0.11183572 -0.022121351 0.0073737837 -0.12166743 0.035639957
0.029495135 -0.04547167 -0.14255983 -0.08234058 -0.15116256 -0.07865369 -0.043013737 -0.044242702
0.056532342 0.04547167 -0.07373784 -0.01228964 -0.05530338 -0.043013737 -0.051616486 0.047929592
-0.05284545 0.033182025 0.043013737 -0.044242702 0.039326847 0.06882198 0.06882198 -0.122896396
0.028266171 0.054074414 0.028266171 -0.06636405 0.031953063 -0.050387524 -0.07988266 -0.029495135
0.03441099 -0.081111625 0.028266171 -0.054074414 -0.15116256 0.027037207 -0.040555812 0.04915856
-0.05530338 0.031953063 -0.14501774 0.050387524 -0.044242702 0.067593016 -0.03441099 -0.028266171
0.067593016 0.031953063 0.03441099 0.030724099 0.033182025 0.041784775 -0.056532342 -0.119209506
0.04915856 0.03809788 -0.14747567 0.061448198 -0.041784775 -0.002457928 -0.060219236 -0.043013737
0.019663423 0.035639957 -0.00614482 0.040555812 0.035639957 0.023350315 0.056532342 0.054074414
0.033182025 0.044242702 -0.10200401 -0.07988266 0.025808243 0.043013737 0.07127991 0.03809788
0.028266171 0.051616486 -0.028266171 -0.056532342 -0.05284545 0.04547167 0.027037207 -0.06513509
-0.05530338 0.029495135 0.061448198 -0.11429365 0.051616486 0.05530338 -0.047929592 0.033182025
0.04547167 0.028266171 0.028266171 0.05530338 0.03809788 -0.057761304 0.047929592 -0.06636405
-0.07005095 0.04670063 0.13764396 -0.040555812 0.030724099 -0.01843446 0.019663423 -0.07742473
0.050387524 0.07250887 -0.060219236 0.04547167 0.040555812 0.023350315 0.027037207 -0.15607843
-0.13149914 0.027037207 -0.04915856 -0.10814883 0.03441099 0.041784775 0.017205495 0.020892387
0.019663423 -0.09340126 -0.047929592 -0.07619576 0.05284545 -0.06513509 -0.041784775 -0.054074414
0.033182025 -0.04670063 -0.109377794 -0.060219236 0.11798054 -0.0147475675 0.041784775 -0.057761304
0.044242702 0.028266171 0.027037207 0.07127991 0.031953063 -0.12535432 0.04915856 -0.044242702
0.040555812 -0.1056909 0.051616486 0.13518603 0.030724099 0.031953063 -0.10200401 0.030724099
0.04670063 -0.08356955 0.029495135 -0.061448198 0.031953063 0.033182025 0.030724099 0.043013737
0.035639957 0.040555812 0.035639957 -0.04670063 -0.07865369 0.03809788 0.03441099 0.09463023
0.04915856 0.035639957 -0.050387524 -0.057761304 -0.08602747 -0.020892387 0.0147475675 0.041784775
-0.07373784 0.030724099 -0.11798054 0.025808243 0.047929592 0.029495135 0.09831712 -0.1056909

sequential/dense_2/MatMul i1 [200, 200] scale=0.0027922005 zero_point=0
00000000: ee1d effa f503 1eee e020 eeda 19f5 fa17
00000010: f0ee cfcd e0fe f40b fe0b d919 e619 ebf9
00000020: e3ef 24d7 170c faf7 ffe2 f211 e813 d2e1
00000030: 1909 e3ea ce0d 1513 00fd ebe7 0314 18f4
00000040: ecf3 1e0a 2315 16e1 0d18 fce2 f4df cfec
00000050: 0bf9 0cec f3f6 29d9 fbc4 02ee 0ed7 ef18
00000060: da0a 2bd5 c4e8 32de ecec 0413 e21c 0303
00000070: 03de 200b e0fb 01e5 e8d9 1cf3 040f f7df
00000080: dfe6 1b12 e902 e0ef fb2b 0e02 d6db ecbf
00000090: d917 2023 fbde 18f5 2009 fd1f ca18 b90e
000000a0: 32ee fff0 180f 16ec f30c f4d9 f3f8 eb32
000000b0: d8f7 1c0b 27fb f51b f8f2 0e17 feda 271a
000000c0: e707 1e0b d9e2 fb12 0700 2028 06f6 e2e3
000000d0: 0b03 14cd f606 2301 23eb dc0d e60c 1a0d
000000e0: 291a d513 e8fd e023 f5e0 fb14 ef11 d703
000000f0: 0905 20fa 1fea cee3 240b 0be9 0906 f5d8
-0.05025961 0.08097382 -0.04746741 -0.016753204 -0.030714206 0.008376602 0.08376601 -0.05025961
-0.08935042 0.08935042 -0.05025961 -0.10610362 0.06980501 -0.030714206 -0.016753204 0.064220615
-0.04467521 -0.05025961 -0.13681783 -0.14240223 -0.08935042 -0.005584401 -0.03350641 0.030714206
-0.005584401 0.030714206 -0.10889582 0.06980501 -0.07259721 0.06980501 -0.05863621 -0.019545404
-0.08097382 -0.04746741 0.10051922 -0.11448022 0.064220615 0.03350641 -0.016753204 -0.025129804
-0.0027922005 -0.08376601 -0.03909081 0.04746741 -0.06701282 0.05305181 -0.12844123 -0.086558215
0.06980501 0.025129804 -0.08097382 -0.061428413 -0.13961002 0.036298607 0.05863621 0.05305181
0.0 -0.008376602 -0.05863621 -0.06980501 0.008376602 0.05584401 0.06701282 -0.03350641
-0.05584401 -0.036298607 0.08376601 0.027922004 0.097727016 0.05863621 0.061428413 -0.086558215
0.036298607 0.06701282 -0.011168802 -0.08376601 -0.03350641 -0.09214262 -0.13681783 -0.05584401
0.030714206 -0.019545404 0.03350641 -0.05584401 -0.036298607 -0.027922004 0.11448022 -0.10889582
-0.013961002 -0.16753203 0.005584401 -0.05025961 0.03909081 -0.11448022 -0.04746741 0.06701282
-0.10610362 0.027922004 0.12006462 -0.12006462 -0.16753203 -0.06701282 0.13961002 -0.09493482
-0.05584401 -0.05584401 0.011168802 0.05305181 -0.08376601 0.07818162 0.008376602 0.008376602
0.008376602 -0.09493482 0.08935042 0.030714206 -0.08935042 -0.013961002 0.0027922005 -0.075389415
-0.06701282 -0.10889582 0.07818162 -0.036298607 0.011168802 0.041883007 -0.025129804 -0.09214262
-0.09214262 -0.07259721 0.075389415 0.05025961 -0.064220615 0.005584401 -0.08935042 -0.04746741
-0.013961002 0.12006462 0.03909081 0.005584401 -0.11727242 -0.10331142 -0.05584401 -0.18149303
-0.10889582 0.064220615 0.08935042 0.097727016 -0.013961002 -0.09493482 0.06701282 -0.030714206
0.08935042 0.025129804 -0.008376602 0.086558215 -0.15077883 0.06701282 -0.19824624 0.03909081
0.13961002 -0.05025961 -0.0027922005 -0.04467521 0.06701282 0.041883007 0.061428413 -0.05584401
-0.036298607 0.03350641 -0.03350641 -0.10889582 -0.036298607 -0.022337604 -0.05863621 0.13961002
-0.11168802 -0.025129804 0.07818162 0.030714206 0.10889582 -0.013961002 -0.030714206 0.075389415
-0.022337604 -0.03909081 0.03909081 0.064220615 -0.005584401 -0.10610362 0.10889582 0.07259721
-0.06980501 0.019545404 0.08376601 0.030714206 -0.10889582 -0.08376601 -0.013961002 0.05025961
0.019545404 0.0 0.08935042 0.11168802 0.016753204 -0.027922004 -0.08376601 -0.08097382
0.030714206 0.008376602 0.05584401 -0.14240223 -0.027922004 0.016753204 0.097727016 0.0027922005
0.097727016 -0.05863621 -0.10051922 0.036298607 -0.07259721 0.03350641 0.07259721 0.036298607
0.11448022 0.07259721 -0.12006462 0.05305181 -0.06701282 -0.008376602 -0.08935042 0.097727016
-0.030714206 -0.08935042 -0.013961002 0.05584401 -0.04746741 0.04746741 -0.11448022 0.008376602
0.025129804 0.013961002 0.08935042 -0.016753204 0.086558215 -0.061428413 -0.13961002 -0.08097382
0.10051922 0.030714206 0.030714206 -0.064220615 0.025129804 0.016753204 -0.030714206 -0.11168802

sequential/dense_1/MatMul i1 [200, 200] scale=0.0020816547 zero_point=0
00000000: edcd 132e e307 f221 25de 15f8 e4c8 1b29
00000010: 2cf8 101c 0925 2fff 14d2 f8de 30d9 e0f7
00000020: e1fa 2e15 2c35 1435 e0f6 ddd6 d5df 05d3
00000030: e620 e800 eff1 30fa 31e0 1c32 34da 341b
00000040: 012d 1fd0 f030 ff03 3c0d d8f8 c604 d0fa
00000050: 0c08 273b ed1b df27 e3d2 2930 e918 3a14
00000060: f1f3 1f03 02ca e22c 06d1 cfe7 e7c6 2acb
00000070: fe0c 0100 26ec fbd0 c9cc f2f3 ecd6 e604
00000080: c8ef daed 25eb 2806 131e d0e4 3504 1001
00000090: f016 0cfd ef23 d2d5 26fa c538 c7d9 fb23
000000a0: cc29 e5d1 172b d12a 34f4 38ff 0dca f704
000000b0: e80e 212e e301 1e25 08ef 1cfa 00f6 0be3
000000c0: dc11 1321 2327 1a08 d0c5 1c0f 22ce f8f2
000000d0: 3126 e2ee cb09 f521 f6cd 02c5 d53f f40c
000000e0: fd14 f244 d7e8 c813 1ff3 f2f1 26e9 02ba
000000f0: e122 d330 fef8 e30c f929 db1a 1df8 bef4
-0.03955144 -0.10616439 0.03955144 0.09575612 -0.060367987 0.014571583 -0.029143166 0.06869461
0.07702123 -0.07077626 0.04371475 -0.016653238 -0.05828633 -0.11657266 0.056204677 0.085347846
0.09159281 -0.016653238 0.033306476 0.05828633 0.018734893 0.07702123 0.097837776 -0.0020816547
0.041633096 -0.09575612 -0.016653238 -0.07077626 0.09991942 -0.081184536 -0.06661295 -0.018734893
-0.0645313 -0.012489928 0.09575612 0.04371475 0.09159281 0.1103277 0.041633096 0.1103277
-0.06661295 -0.020816548 -0.07285792 -0.0874295 -0.089511156 -0.06869461 0.010408274 -0.093674466
-0.05412302 0.06661295 -0.04995971 0.0 -0.03538813 -0.03122482 0.09991942 -0.012489928
0.10200108 -0.06661295 0.05828633 0.10408273 0.10824604 -0.07910288 0.10824604 0.056204677
0.0020816547 0.093674466 0.0645313 -0.09991942 -0.033306476 0.09991942 -0.0020816547 0.006244964
0.12489928 0.02706151 -0.08326619 -0.016653238 -0.12073597 0.008326619 -0.09991942 -0.012489928
0.024979856 0.016653238 0.081184536 0.12281763 -0.03955144 0.056204677 -0.06869461 0.081184536
-0.060367987 -0.09575612 0.085347846 0.09991942 -0.04787806 0.04995971 0.12073597 0.041633096
-0.03122482 -0.02706151 0.0645313 0.006244964 0.0041633095 -0.11240935 -0.06244964 0.09159281
0.012489928 -0.097837776 -0.10200108 -0.052041367 -0.052041367 -0.12073597 0.0874295 -0.1103277
-0.0041633095 0.024979856 0.0020816547 0.0 0.07910288 -0.041633096 -0.010408274 -0.09991942
-0.11449101 -0.10824604 -0.029143166 -0.02706151 -0.041633096 -0.0874295 -0.05412302 0.008326619
-0.11657266 -0.03538813 -0.07910288 -0.03955144 0.07702123 -0.04371475 0.08326619 0.012489928
0.03955144 0.06244964 -0.09991942 -0.05828633 0.1103277 0.008326619 0.033306476 0.0020816547
-0.033306476 0.045796406 0.024979856 -0.006244964 -0.03538813 0.07285792 -0.09575612 -0.089511156
0.07910288 -0.012489928 -0.12281763 0.11657266 -0.11865432 -0.081184536 -0.010408274 0.07285792
-0.10824604 0.085347846 -0.056204677 -0.097837776 0.04787806 0.089511156 -0.097837776 0.0874295
0.10824604 -0.024979856 0.11657266 -0.0020816547 0.02706151 -0.11240935 -0.018734893 0.008326619
-0.04995971 0.029143166 0.06869461 0.09575612 -0.060367987 0.0020816547 0.06244964 0.07702123
0.016653238 -0.03538813 0.05828633 -0.012489928 0.0 -0.020816548 0.022898203 -0.060367987
-0.07493957 0.03538813 0.03955144 0.06869461 0.07285792 0.081184536 0.05412302 0.016653238
-0.09991942 -0.12281763 0.05828633 0.03122482 0.07077626 -0.10408273 -0.016653238 -0.029143166
0.10200108 0.07910288 -0.06244964 -0.037469786 -0.1103277 0.018734893 -0.022898203 0.06869461
-0.020816548 -0.10616439 0.0041633095 -0.12281763 -0.089511156 0.13114426 -0.024979856 0.024979856
-0.006244964 0.041633096 -0.029143166 0.14155252 -0.085347846 -0.04995971 -0.11657266 0.03955144
0.0645313 -0.02706151 -0.029143166 -0.03122482 0.07910288 -0.04787806 0.0041633095 -0.14571583
-0.0645313 0.07077626 -0.093674466 0.09991942 -0.0041633095 -0.016653238 -0.060367987 0.024979856
-0.014571583 0.085347846 -0.07702123 0.05412302 0.060367987 -0.016653238 -0.13738921 -0.024979856

sequential/dense/MatMul i1 [200, 6] scale=0.0042029866 zero_point=0
00000000: ff18 3017 d7ef 32d3 ce0d c914 e7f2 2407
00000010: 1000 09ef f8e1 01dd 04e8 ed10 f8df f9fb
00000020: e021 eadb 4eab 06fe fe06 0804 02d7 fc04
00000030: 55a3 24e7 0017 f8dc fa0c da0a ea3f 023c
00000040: 1007 fc10 242d d200 8876 cb0a fe0c 6dc4
00000050: 0739 15e9 33cf 52e4 0a16 f203 fbee ff12
00000060: dbee ee1e 0bdd e90c fb11 e801 4df2 2143
00000070: 16f1 2d08 e138 13fe ddf8 12f9 f5ea 68ae
00000080: 4018 0de5 b943 c7eb 01e1 e1d9 0def 1ee6
00000090: aa63 9517 0b10 ece7 24fa d9e6 a258 0cf6
000000a0: f3ef 59c2 2e1e 0fe5 130f ccdd 0c02 02d9
000000b0: f205 edf8 eada ee1a 0cda 49ad d5fd dd1b
000000c0: df30 16e5 09e6 827b ca07 fc12 effe e4e5
000000d0: 070e b857 9d20 0a17 1319 123e 1110 bd44
000000e0: 1b0d d2e5 dc25 b7e6 06e0 7f93 3b15 0cd9
000000f0: f9df e8ea e5f8 dee9 fb1d 01ed b83b 07e9
-0.0042029866 0.10087168 0.20174336 0.09666869 -0.17232245 -0.07145077 0.21014933 -0.1891344
-0.21014933 0.054638825 -0.23116426 0.08405973 -0.10507467 -0.058841813 0.15130752 0.029420907
0.067247786 0.0 0.03782688 -0.07145077 -0.033623893 -0.13029258 0.0042029866 -0.14710453
0.016811946 -0.10087168 -0.079856746 0.067247786 -0.033623893 -0.13869856 -0.029420907 -0.021014933
-0.13449557 0.13869856 -0.092465706 -0.1555105 0.32783297 -0.35725385 0.02521792 -0.008405973
-0.008405973 0.02521792 0.033623893 0.016811946 0.008405973 -0.17232245 -0.016811946 0.016811946
0.35725385 -0.39087775 0.15130752 -0.10507467 0.0 0.09666869 -0.033623893 -0.15130752
-0.02521792 0.05043584 -0.15971349 0.042029865 -0.092465706 0.26478815 0.008405973 0.2521792
0.067247786 0.029420907 -0.016811946 0.067247786 0.15130752 0.1891344 -0.19333738 0.0
-0.5043584 0.49595243 -0.2227583 0.042029865 -0.008405973 0.05043584 0.45812553 -0.2521792
0.029420907 0.23957023 0.08826272 -0.09666869 0.21435231 -0.20594634 0.3446449 -0.11768363
0.042029865 0.092465706 -0.058841813 0.01260896 -0.021014933 -0.07565376 -0.0042029866 0.07565376
-0.1555105 -0.07565376 -0.07565376 0.1260896 0.046232853 -0.14710453 -0.09666869 0.05043584
-0.021014933 0.07145077 -0.10087168 0.0042029866 0.32362998 -0.058841813 0.13869856 0.2816001
0.092465706 -0.0630448 0.1891344 0.033623893 -0.13029258 0.23536725 0.079856746 -0.008405973
-0.14710453 -0.033623893 0.07565376 -0.029420907 -0.046232853 -0.092465706 0.4371106 -0.3446449
0.26899114 0.10087168 0.054638825 -0.113480635 -0.29841205 0.2816001 -0.23957023 -0.08826272
0.0042029866 -0.13029258 -0.13029258 -0.16391648 0.054638825 -0.07145077 0.1260896 -0.10927765
-0.36145684 0.41609567 -0.44971958 0.09666869 0.046232853 0.067247786 -0.08405973 -0.10507467
0.15130752 -0.02521792 -0.16391648 -0.10927765 -0.39508075 0.36986282 0.05043584 -0.042029865
-0.054638825 -0.07145077 0.37406582 -0.26058516 0.19333738 0.1260896 0.0630448 -0.113480635
0.079856746 0.0630448 -0.2185553 -0.14710453 0.05043584 0.008405973 0.008405973 -0.16391648
-0.058841813 0.021014933 -0.079856746 -0.033623893 -0.092465706 -0.15971349 -0.07565376 0.10927765
0.05043584 -0.15971349 0.306818 -0.3488479 -0.18072842 -0.01260896 -0.14710453 0.113480635
-0.13869856 0.20174336 0.092465706 -0.113480635 0.03782688 -0.10927765 -0.5295763 0.51696736
-0.22696127 0.029420907 -0.016811946 0.07565376 -0.07145077 -0.008405973 -0.11768363 -0.113480635
0.029420907 0.058841813 -0.30261505 0.36565983 -0.41609567 0.13449557 0.042029865 0.09666869
0.079856746 0.10507467 0.07565376 0.26058516 0.07145077 0.067247786 -0.2816001 0.28580308
0.113480635 0.054638825 -0.19333738 -0.113480635 -0.15130752 0.1555105 -0.306818 -0.10927765
0.02521792 -0.13449557 0.5337793 -0.45812553 0.24797621 0.08826272 0.05043584 -0.16391648
-0.029420907 -0.13869856 -0.10087168 -0.092465706 -0.113480635 -0.033623893 -0.14290154 -0.09666869
-0.021014933 0.12188661 0.0042029866 -0.079856746 -0.30261505 0.24797621 0.029420907 -0.09666869
