tf/jmeint/model.tflite (tflite, 9688 bytes, 6 tensors)

sequential/dense_5/MatMul i1 [2, 32] scale=0.005382418 zero_point=0
000000 34 26 fd 47 02 fc 1b fb f4 fb fb 07 45 13 7f fc
       0.27988574 0.2045319 -0.016147254 0.3821517 0.010764836 -0.021529673 0.14532529 -0.026912091 -0.064589016 -0.026912091 -0.026912091 0.037676927 0.37138686 0.10226595 0.6835671 -0.021529673
000010 fd fb fc fa 00 fb fa fe fb 2c 1e 13 fc 48 ff fa
       -0.016147254 -0.026912091 -0.021529673 -0.032294508 0.0 -0.026912091 -0.032294508 -0.010764836 -0.026912091 0.2368264 0.16147254 0.10226595 -0.021529673 0.3875341 -0.005382418 -0.032294508
000020 d1 da 03 cf 01 04 d0 05 0c 05 05 ce bb ed 81 04
       -0.25297365 -0.2045319 0.016147254 -0.26373848 0.005382418 0.021529673 -0.25835606 0.026912091 0.064589016 0.026912091 0.026912091 -0.2691209 -0.37138686 -0.10226595 -0.6835671 0.021529673
000030 03 05 04 06 bd 05 06 d8 05 db e2 ed 04 b8 dc 06
       0.016147254 0.026912091 0.021529673 0.032294508 -0.36062202 0.026912091 0.032294508 -0.21529673 0.026912091 -0.19914947 -0.16147254 -0.10226595 0.021529673 -0.3875341 -0.19376706 0.032294508

sequential/dense_4/MatMul i1 [32, 32] scale=0.0046895933 zero_point=0
000000 37 17 eb f4 10 fb 17 d2 19 c4 d7 26 ca 22 e1 27
       0.25792763 0.10786065 -0.09848146 -0.056275122 0.07503349 -0.023447966 0.10786065 -0.2157213 0.11723983 -0.2813756 -0.19227333 0.17820455 -0.25323805 0.15944618 -0.1453774 0.18289414
000010 f2 c5 20 18 24 01 12 c6 e0 02 c8 cc f9 d5 0a e9
       -0.06565431 -0.276686 0.15006699 0.112550244 0.16882536 0.0046895933 0.08441268 -0.2719964 -0.15006699 0.009379187 -0.26261723 -0.24385886 -0.032827154 -0.20165251 0.046895932 -0.10786065
000020 a9 09 f5 35 c9 d9 bd f2 d0 e4 05 1c 0e c1 c6 bd
       -0.40799463 0.04220634 -0.051585525 0.24854845 -0.25792763 -0.18289414 -0.31420276 -0.06565431 -0.22510049 -0.13130862 0.023447966 0.13130862 0.06565431 -0.29544437 -0.2719964 -0.31420276
000030 c3 ec f6 0c c0 de c2 f1 eb c7 c4 24 e5 f3 12 ce
       -0.2860652 -0.093791865 -0.046895932 0.056275122 -0.30013397 -0.15944618 -0.2907548 -0.0703439 -0.09848146 -0.26730683 -0.2813756 0.16882536 -0.12661903 -0.060964715 0.08441268 -0.23447967
000040 03 f6 cf c2 c6 e9 10 29 20 e6 f3 c6 45 10 da e9
       0.0140687805 -0.046895932 -0.22979008 -0.2907548 -0.2719964 -0.10786065 0.07503349 0.19227333 0.15006699 -0.12192943 -0.060964715 -0.2719964 0.32358193 0.07503349 -0.17820455 -0.10786065
000050 f8 23 1f 38 b4 35 f1 17 1e d8 c4 e5 12 13 f6 32
       -0.037516747 0.16413577 0.1453774 0.26261723 -0.3564091 0.24854845 -0.0703439 0.10786065 0.1406878 -0.18758373 -0.2813756 -0.12661903 0.08441268 0.089102276 -0.046895932 0.23447967
000060 24 fb 18 26 cf be e5 c7 cc 19 c0 0e ff 16 d7 d6
       0.16882536 -0.023447966 0.112550244 0.17820455 -0.22979008 -0.30951315 -0.12661903 -0.26730683 -0.24385886 0.11723983 -0.30013397 0.06565431 -0.0046895933 0.10317105 -0.19227333 -0.19696292
000070 c3 0c 29 c5 cc e9 cb d2 d6 ef 04 f2 0c eb 3c df
       -0.2860652 0.056275122 0.19227333 -0.276686 -0.24385886 -0.10786065 -0.24854845 -0.2157213 -0.19696292 -0.07972309 0.018758373 -0.06565431 0.056275122 -0.09848146 0.2813756 -0.15475658
000080 1d bc 0c cd da 02 c7 04 d5 f7 df 27 16 14 06 27
       0.1359982 -0.31889236 0.056275122 -0.23916925 -0.17820455 0.009379187 -0.26730683 0.018758373 -0.20165251 -0.04220634 -0.15475658 0.18289414 0.10317105 0.093791865 0.028137561 0.18289414
000090 c6 d3 fb e3 0a 11 dd e4 0a ec 0f 1e db 10 2a dc
       -0.2719964 -0.2110317 -0.023447966 -0.1359982 0.046895932 0.07972309 -0.16413577 -0.13130862 0.046895932 -0.093791865 0.0703439 0.1406878 -0.17351495 0.07503349 0.19696292 -0.16882536
0000a0 05 ff de f3 1d 0f 05 10 2b 1b f1 06 15 27 f2 30
       0.023447966 -0.0046895933 -0.15944618 -0.060964715 0.1359982 0.0703439 0.023447966 0.07503349 0.20165251 0.12661903 -0.0703439 0.028137561 0.09848146 0.18289414 -0.06565431 0.22510049
0000b0 cf 25 04 06 d0 34 f3 e5 1a da fa f6 f9 c3 27 1c
       -0.22979008 0.17351495 0.018758373 0.028137561 -0.22510049 0.24385886 -0.060964715 -0.12661903 0.12192943 -0.17820455 -0.028137561 -0.046895932 -0.032827154 -0.2860652 0.18289414 0.13130862
0000c0 21 11 1e bd 1a f0 0b e8 eb e8 d6 0f c0 e2 e0 2a
       0.15475658 0.07972309 0.1406878 -0.31420276 0.12192943 -0.07503349 0.051585525 -0.112550244 -0.09848146 -0.112550244 -0.19696292 0.0703439 -0.30013397 -0.1406878 -0.15006699 0.19696292
0000d0 f4 ef 08 08 c3 f6 db fc 1b e9 1c c8 00 05 0e 18
       -0.056275122 -0.07972309 0.037516747 0.037516747 -0.2860652 -0.046895932 -0.17351495 -0.018758373 0.12661903 -0.10786065 0.13130862 -0.26261723 0.0 0.023447966 0.06565431 0.112550244
0000e0 0b cc 01 aa ca 31 0b 14 f1 eb 0d e3 f6 19 16 0b
       0.051585525 -0.24385886 0.0046895933 -0.40330502 -0.25323805 0.22979008 0.051585525 0.093791865 -0.0703439 -0.09848146 0.060964715 -0.1359982 -0.046895932 0.11723983 0.10317105 0.051585525
0000f0 fc fa 0e c6 ca 01 05 12 04 28 db f8 26 bd 2c 1e
       -0.018758373 -0.028137561 0.06565431 -0.2719964 -0.25323805 0.0046895933 0.023447966 0.08441268 0.018758373 0.18758373 -0.17351495 -0.037516747 0.17820455 -0.31420276 0.2063421 0.1406878

sequential/dense_3/MatMul i1 [32, 32] scale=0.0043316293 zero_point=0
000000 4d d2 d4 f0 c0 06 19 41 ff ec dd 15 1c fa 2a 32
       0.33353546 -0.19925494 -0.1905917 -0.06930607 -0.27722427 0.025989775 0.10829073 0.2815559 -0.0043316293 -0.08663259 -0.15160702 0.09096421 0.12128562 -0.025989775 0.18192843 0.21658146
000010 1e dd 3d 03 cd 0b 29 11 f4 e2 3f 01 01 ce d3 f4
       0.12994888 -0.15160702 0.2642294 0.012994887 -0.2209131 0.047647923 0.1775968 0.073637694 -0.05197955 -0.12994888 0.27289265 0.0043316293 0.0043316293 -0.21658146 -0.19492331 -0.05197955
000020 10 dd f5 0c 06 d8 23 f6 c4 d9 ee 35 c1 04 18 07
       0.06930607 -0.15160702 -0.047647923 0.05197955 0.025989775 -0.17326517 0.15160702 -0.043316294 -0.25989777 -0.16893354 -0.07796933 0.22957635 -0.27289265 0.017326517 0.1039591 0.030321404
000030 0c 0a f2 1d da 07 25 2f 0a da f7 c2 1f ff f4 cb
       0.05197955 0.043316294 -0.06064281 0.12561725 -0.1646019 0.030321404 0.16027029 0.20358658 0.043316294 -0.1646019 -0.038984664 -0.268561 0.1342805 -0.0043316293 -0.05197955 -0.22957635
000040 08 f0 f3 c5 28 d6 f6 c0 e7 3f fe e7 0c c8 bf f7
       0.034653034 -0.06930607 -0.05631118 -0.25556612 0.17326517 -0.18192843 -0.043316294 -0.27722427 -0.10829073 0.27289265 -0.0086632585 -0.10829073 0.05197955 -0.24257123 -0.2815559 -0.038984664
000050 33 47 28 c8 04 2f 31 cd 3e df ca ce c0 01 e8 ec
       0.2209131 0.3075457 0.17326517 -0.24257123 0.017326517 0.20358658 0.21224983 -0.2209131 0.268561 -0.14294377 -0.23390798 -0.21658146 -0.27722427 0.0043316293 -0.1039591 -0.08663259
000060 ee 08 91 99 2a 9b 18 d6 ea 0d 04 29 f6 a9 9c d5
       -0.07796933 0.034653034 -0.48081085 -0.4461578 0.18192843 -0.43749455 0.1039591 -0.18192843 -0.09529585 0.05631118 0.017326517 0.1775968 -0.043316294 -0.37685174 -0.43316293 -0.18626006
000070 a8 2e e8 c1 bd c8 1a 3f 2e 99 b6 a3 f6 b8 81 d4
       -0.3811834 0.19925494 -0.1039591 -0.27289265 -0.29021916 -0.24257123 0.11262236 0.27289265 0.19925494 -0.4461578 -0.32054058 -0.4028415 -0.043316294 -0.3118773 -0.5501169 -0.1905917
000080 c4 09 14 e4 3f f0 df 0b 2f 22 c2 f9 28 f6 e4 b6
       -0.25989777 0.038984664 0.08663259 -0.12128562 0.27289265 -0.06930607 -0.14294377 0.047647923 0.20358658 0.14727539 -0.268561 -0.030321404 0.17326517 -0.043316294 -0.12128562 -0.32054058
000090 b9 04 04 2f d2 2c f0 ff 3b 19 2e b9 f3 cf f8 f0
       -0.3075457 0.017326517 0.017326517 0.20358658 -0.19925494 0.1905917 -0.06930607 -0.0043316293 0.25556612 0.10829073 0.19925494 -0.3075457 -0.05631118 -0.21224983 -0.034653034 -0.06930607
0000a0 27 f1 32 14 26 09 da 3b eb 0e d4 07 13 2b 0d 0f
       0.16893354 -0.06497444 0.21658146 0.08663259 0.1646019 0.038984664 -0.1646019 0.25556612 -0.09096421 0.06064281 -0.1905917 0.030321404 0.08230095 0.18626006 0.05631118 0.06497444
0000b0 1b 11 d7 f6 30 c9 1d f9 34 f8 05 0b e3 f4 fa 17
       0.11695399 0.073637694 -0.1775968 -0.043316294 0.2079182 -0.23823962 0.12561725 -0.030321404 0.22524472 -0.034653034 0.021658147 0.047647923 -0.12561725 -0.05197955 -0.025989775 0.09962747
0000c0 f4 ef 14 2c 25 32 d2 07 06 0a ed 29 d4 3a b9 cc
       -0.05197955 -0.073637694 0.08663259 0.1905917 0.16027029 0.21658146 -0.19925494 0.030321404 0.025989775 0.043316294 -0.08230095 0.1775968 -0.1905917 0.2512345 -0.3075457 -0.22524472
0000d0 f3 e7 3d ed 26 cf 4b 26 1a b3 37 e7 dd e1 d7 30
       -0.05631118 -0.10829073 0.2642294 -0.08230095 0.1646019 -0.21224983 0.3248722 0.1646019 0.11262236 -0.33353546 0.23823962 -0.10829073 -0.15160702 -0.1342805 -0.1775968 0.2079182
0000e0 e8 c5 ee 4b 00 05 27 05 03 eb 08 38 28 07 36 08
       -0.1039591 -0.25556612 -0.07796933 0.3248722 0.0 0.021658147 0.16893354 0.021658147 0.012994887 -0.09096421 0.034653034 0.24257123 0.17326517 0.030321404 0.23390798 0.034653034
0000f0 0b ee 34 0b 0a 29 16 31 21 0e 17 0d bf 19 12 03
       0.047647923 -0.07796933 0.22524472 0.047647923 0.043316294 0.1775968 0.09529585 0.21224983 0.14294377 0.06064281 0.09962747 0.05631118 -0.2815559 0.10829073 0.07796933 0.012994887

sequential/dense_2/MatMul i1 [32, 32] scale=0.005166831 zero_point=0
000000 1c 36 eb 7c fe 48 db 29 ed c1 28 39 ed fb 60 c6
       0.14467126 0.27900887 -0.10850345 0.64068705 -0.010333662 0.37201184 -0.19117275 0.21184006 -0.09816979 -0.32551035 0.20667323 0.29450935 -0.09816979 -0.025834154 0.4960158 -0.2996762
000010 f7 d5 10 fe 1d f6 ea f0 a4 9f e9 e3 45 34 4a e1
       -0.04650148 -0.22217374 0.082669295 -0.010333662 0.1498381 -0.05166831 -0.11367028 -0.082669295 -0.47534844 -0.5011826 -0.11883711 -0.1498381 0.35651132 0.2686752 0.3823455 -0.16017176
000020 35 32 12 29 25 35 21 0e 23 cc 21 18 1b 02 06 1d
       0.27384204 0.25834155 0.09300296 0.21184006 0.19117275 0.27384204 0.17050542 0.07233563 0.18083908 -0.2686752 0.17050542 0.12400395 0.13950443 0.010333662 0.031000987 0.1498381
000030 16 26 33 3f 14 09 0a 2a 1c 28 19 fb 18 e8 17 24
       0.11367028 0.19633958 0.26350838 0.32551035 0.10333662 0.04650148 0.05166831 0.2170069 0.14467126 0.20667323 0.12917078 -0.025834154 0.12400395 -0.12400395 0.11883711 0.18600592
000040 0c 55 fe 4b 19 0f 1e 47 de c9 f4 2c 1a d4 38 d2
       0.062001973 0.43918064 -0.010333662 0.38751233 0.12917078 0.07750247 0.15500493 0.366845 -0.17567225 -0.2841757 -0.062001973 0.22734056 0.1343376 -0.22734056 0.28934252 -0.23767422
000050 09 2e 15 36 75 1d e0 f2 f6 2c c5 cc 2c ca 35 0c
       0.04650148 0.23767422 0.10850345 0.27900887 0.60451925 0.1498381 -0.16533859 -0.07233563 -0.05166831 0.22734056 -0.30484304 -0.2686752 0.22734056 -0.27900887 0.27384204 0.062001973
000060 2a 01 fd 41 44 44 43 fc d8 ed 08 1e 4e ea fd d5
       0.2170069 0.005166831 -0.015500493 0.335844 0.3513445 0.3513445 0.34617767 -0.020667324 -0.20667323 -0.09816979 0.041334648 0.15500493 0.4030128 -0.11367028 -0.015500493 -0.22217374
000070 3d 4e 28 20 30 ce e6 f9 fa ef e4 c9 4b d6 19 23
       0.3151767 0.4030128 0.20667323 0.16533859 0.2480079 -0.25834155 -0.1343376 -0.036167815 -0.031000987 -0.087836124 -0.14467126 -0.2841757 0.38751233 -0.2170069 0.12917078 0.18083908
000080 02 03 19 dd 32 dc fd e7 c7 d6 2e 1d f8 da e6 0d
       0.010333662 0.015500493 0.12917078 -0.18083908 0.25834155 -0.18600592 -0.015500493 -0.12917078 -0.29450935 -0.2170069 0.23767422 0.1498381 -0.041334648 -0.19633958 -0.1343376 0.0671688
000090 26 fe 37 d7 0b df ce 1b 22 fb d3 f0 e5 38 f9 06
       0.19633958 -0.010333662 0.2841757 -0.21184006 0.05683514 -0.17050542 -0.25834155 0.13950443 0.17567225 -0.025834154 -0.2325074 -0.082669295 -0.13950443 0.28934252 -0.036167815 0.031000987
0000a0 1c 4b 3d 48 58 2a 20 0b de e2 fd de 3b f5 4b ec
       0.14467126 0.38751233 0.3151767 0.37201184 0.45468113 0.2170069 0.16533859 0.05683514 -0.17567225 -0.15500493 -0.015500493 -0.17567225 0.30484304 -0.05683514 0.38751233 -0.10333662
0000b0 36 21 2c 37 5a 07 f6 ee 5a 18 db e9 f2 da 21 4c
       0.27900887 0.17050542 0.22734056 0.2841757 0.4650148 0.036167815 -0.05166831 -0.09300296 0.4650148 0.12400395 -0.19117275 -0.11883711 -0.07233563 -0.19633958 0.17050542 0.39267915
0000c0 dc 20 e2 d8 e1 f9 28 fe db 11 16 f3 19 e2 e9 2b
       -0.18600592 0.16533859 -0.15500493 -0.20667323 -0.16017176 -0.036167815 0.20667323 -0.010333662 -0.19117275 0.087836124 0.11367028 -0.0671688 0.12917078 -0.15500493 -0.11883711 0.22217374
0000d0 09 17 0f 1b 23 12 c8 ef 13 d6 c9 10 2f d1 da e5
       0.04650148 0.11883711 0.07750247 0.13950443 0.18083908 0.09300296 -0.28934252 -0.087836124 0.09816979 -0.2170069 -0.2841757 0.082669295 0.24284105 -0.24284105 -0.19633958 -0.13950443
0000e0 02 e2 12 39 0f 3b 4e 68 f8 dd 2b 16 fb ef 40 ce
       0.010333662 -0.15500493 0.09300296 0.29450935 0.07750247 0.30484304 0.4030128 0.5373504 -0.041334648 -0.18083908 0.22217374 0.11367028 -0.025834154 -0.087836124 0.33067718 -0.25834155
0000f0 43 0a c4 33 f9 d2 da 44 3f e4 f6 02 ce 0a eb b3
       0.34617767 0.05166831 -0.31000987 0.26350838 -0.036167815 -0.23767422 -0.19633958 0.3513445 0.32551035 -0.14467126 -0.05166831 0.010333662 -0.25834155 0.05166831 -0.10850345 -0.39784598

sequential/dense_1/MatMul i1 [32, 32] scale=0.009486035 zero_point=0
000000 ed 14 11 07 1f 1d 08 16 3a fd 09 2f e5 fb dc 6b
       -0.18023467 0.1897207 0.1612626 0.06640225 0.29406708 0.27509502 0.07588828 0.20869277 0.55019003 -0.028458107 0.08537432 0.44584367 -0.25612295 -0.047430176 -0.34149727 1.0150058
000010 e2 e3 21 e1 12 f5 ed 23 2e e2 f9 2d 10 ee e3 12
       -0.28458107 -0.27509502 0.31303918 -0.29406708 0.17074864 -0.10434639 -0.18023467 0.33201125 0.43635762 -0.28458107 -0.06640225 0.4268716 0.15177657 -0.17074864 -0.27509502 0.17074864
000020 e2 d6 f8 fc 23 f1 28 d4 0c f4 ef 3f fd 2c 18 00
       -0.28458107 -0.39841348 -0.07588828 -0.03794414 0.33201125 -0.14229053 0.3794414 -0.41738555 0.11383243 -0.11383243 -0.1612626 0.59762025 -0.028458107 0.41738555 0.22766486 0.0
000030 ef ef 13 e1 01 04 fe 27 fb 22 f7 32 e3 dc ba f9
       -0.1612626 -0.1612626 0.18023467 -0.29406708 0.009486035 0.03794414 -0.01897207 0.3699554 -0.047430176 0.3225252 -0.08537432 0.4743018 -0.27509502 -0.34149727 -0.6640225 -0.06640225
000040 e2 12 06 18 06 16 fd de 17 d3 e3 07 e6 07 32 1f
       -0.28458107 0.17074864 0.056916215 0.22766486 0.056916215 0.20869277 -0.028458107 -0.3225252 0.21817881 -0.4268716 -0.27509502 0.06640225 -0.24663693 0.06640225 0.4743018 0.29406708
000050 f7 eb e2 d1 1f 08 f0 4d 2c 67 01 ff 16 03 f0 21
       -0.08537432 -0.19920674 -0.28458107 -0.44584367 0.29406708 0.07588828 -0.15177657 0.7304247 0.41738555 0.9770616 0.009486035 -0.009486035 0.20869277 0.028458107 -0.15177657 0.31303918
000060 dc 1d 28 0a 1d 4a f3 2f 1e f2 17 31 f2 56 0e e6
       -0.34149727 0.27509502 0.3794414 0.09486035 0.27509502 0.70196664 -0.12331846 0.44584367 0.28458107 -0.1328045 0.21817881 0.46481574 -0.1328045 0.81579906 0.1328045 -0.24663693
000070 19 d1 f6 e7 09 23 e9 21 fe 76 d9 05 fc 27 11 00
       0.2371509 -0.44584367 -0.09486035 -0.2371509 0.08537432 0.33201125 -0.21817881 0.31303918 -0.01897207 1.1193522 -0.3699554 0.047430176 -0.03794414 0.3699554 0.1612626 0.0
000080 dc de 2d fd f7 dc 42 fb 1c f2 1a da ec f3 0d 3b
       -0.34149727 -0.3225252 0.4268716 -0.028458107 -0.08537432 -0.34149727 0.62607837 -0.047430176 0.265609 -0.1328045 0.24663693 -0.36046934 -0.1897207 -0.12331846 0.12331846 0.5596761
000090 e8 f8 eb cf 27 fe f1 31 2f 22 e7 37 eb e6 e2 06
       -0.22766486 -0.07588828 -0.19920674 -0.46481574 0.3699554 -0.01897207 -0.14229053 0.46481574 0.44584367 0.3225252 -0.2371509 0.521732 -0.19920674 -0.24663693 -0.28458107 0.056916215
0000a0 ee 0a f9 fd e6 05 26 3c fe f6 e9 56 f3 51 37 03
       -0.17074864 0.09486035 -0.06640225 -0.028458107 -0.24663693 0.047430176 0.36046934 0.56916213 -0.01897207 -0.09486035 -0.21817881 0.81579906 -0.12331846 0.7683689 0.521732 0.028458107
0000b0 e8 e4 0d df c6 1c ec 1e d4 3b dd de f6 34 f1 1b
       -0.22766486 -0.265609 0.12331846 -0.31303918 -0.55019003 0.265609 -0.1897207 0.28458107 -0.41738555 0.5596761 -0.33201125 -0.3225252 -0.09486035 0.49327385 -0.14229053 0.25612295
0000c0 e1 f6 18 f2 14 f5 46 11 0a e9 ff ef ea 14 49 2f
       -0.29406708 -0.09486035 0.22766486 -0.1328045 0.1897207 -0.10434639 0.6640225 0.1612626 0.09486035 -0.21817881 -0.009486035 -0.1612626 -0.20869277 0.1897207 0.69248056 0.44584367
0000d0 1f f5 f4 eb ed fe f2 3e 1a d6 df 3e f3 19 f9 fb
       0.29406708 -0.10434639 -0.11383243 -0.19920674 -0.18023467 -0.01897207 -0.1328045 0.58813417 0.24663693 -0.39841348 -0.31303918 0.58813417 -0.12331846 0.2371509 -0.06640225 -0.047430176
0000e0 f3 ec 0b bb d9 06 47 06 eb 17 f3 ef f6 33 45 13
       -0.12331846 -0.1897207 0.10434639 -0.6545364 -0.3699554 0.056916215 0.6735085 0.056916215 -0.19920674 0.21817881 -0.12331846 -0.1612626 -0.09486035 0.4837878 0.6545364 0.18023467
0000f0 f3 0b 0d eb 12 13 f1 25 08 2b 01 1c 1d 16 e9 fc
       -0.12331846 0.10434639 0.12331846 -0.19920674 0.17074864 0.18023467 -0.14229053 0.35098332 0.07588828 0.40789953 0.009486035 0.265609 0.27509502 0.20869277 -0.21817881 -0.03794414

sequential/dense/MatMul i1 [32, 18] scale=0.005392375 zero_point=0
000000 c7 c1 2f e1 0e e1 13 22 e3 d1 26 c7 4b fc 2f fe
       -0.30736536 -0.33971962 0.25344163 -0.16716363 0.07549325 -0.16716363 0.102455124 0.18334074 -0.15637888 -0.25344163 0.20491025 -0.30736536 0.40442812 -0.0215695 0.25344163 -0.01078475
000010 92 f4 15 ef 45 20 f9 41 19 03 27 f8 07 c1 e9 fc
       -0.5931612 -0.0647085 0.11323988 -0.09167037 0.37207386 0.172556 -0.037746623 0.35050437 0.13480937 0.016177125 0.21030262 -0.043139 0.037746623 -0.33971962 -0.12402462 -0.0215695
000020 c4 f0 f9 ca bd 21 18 c7 20 21 c4 30 28 08 d9 e3
       -0.3235425 -0.086278 -0.037746623 -0.29118824 -0.3612891 0.17794837 0.129417 -0.30736536 0.172556 0.17794837 -0.3235425 0.258834 0.215695 0.043139 -0.21030262 -0.15637888
000030 11 e8 f9 1d f1 ed 09 22 29 f7 2c 35 f1 1b 53 0b
       0.09167037 -0.129417 -0.037746623 0.15637888 -0.08088563 -0.102455124 0.048531376 0.18334074 0.22108737 -0.048531376 0.2372645 0.28579587 -0.08088563 0.14559412 0.4475671 0.059316125
000040 d5 c9 ff f0 b8 1d d4 e4 cf af b1 dc e3 02 38 15
       -0.23187213 -0.2965806 -0.005392375 -0.086278 -0.388251 0.15637888 -0.2372645 -0.1509865 -0.26422638 -0.43678236 -0.4259976 -0.1941255 -0.15637888 0.01078475 0.301973 0.11323988
000050 1f a5 d0 db 13 30 fd 02 08 15 1c dd 18 20 ed 26
       0.16716363 -0.49070612 -0.258834 -0.19951788 0.102455124 0.258834 -0.016177125 0.01078475 0.043139 0.11323988 0.1509865 -0.18873312 0.129417 0.172556 -0.102455124 0.20491025
000060 14 ec 42 e2 29 c1 f3 31 ae e9 25 bf 0c ef a7 01
       0.1078475 -0.1078475 0.35589674 -0.16177125 0.22108737 -0.33971962 -0.07010087 0.26422638 -0.44217473 -0.12402462 0.19951788 -0.35050437 0.0647085 -0.09167037 -0.47992137 0.005392375
000070 f3 ad 0a ef b0 f8 0a 47 ea 16 45 f7 0a 49 0f b8
       -0.07010087 -0.4475671 0.05392375 -0.09167037 -0.43139 -0.043139 0.05392375 0.38285863 -0.11863225 0.11863225 0.37207386 -0.048531376 0.05392375 0.39364338 0.08088563 -0.388251
000080 10 19 b3 ef 10 b6 08 ca 36 0d dd 3d 19 e6 3e 05
       0.086278 0.13480937 -0.41521287 -0.09167037 0.086278 -0.39903575 0.043139 -0.29118824 0.29118824 0.07010087 -0.18873312 0.32893488 0.13480937 -0.14020175 0.33432725 0.026961874
000090 e0 27 35 e9 2a 2a d9 2d 12 3a bf fe 22 b5 eb 20
       -0.172556 0.21030262 0.28579587 -0.12402462 0.22647975 0.22647975 -0.21030262 0.24265687 0.09706275 0.31275776 -0.35050437 -0.01078475 0.18334074 -0.40442812 -0.11323988 0.172556
0000a0 a4 f6 2f ab 20 0d af c0 09 18 18 da 10 f3 dc c4
       -0.4960985 -0.05392375 0.25344163 -0.45835188 0.172556 0.07010087 -0.43678236 -0.345112 0.048531376 0.129417 0.129417 -0.20491025 0.086278 -0.07010087 -0.1941255 -0.3235425
0000b0 30 47 f6 f6 e2 fb 1d ca ea e5 f3 ce 1a d6 f4 21
       0.258834 0.38285863 -0.05392375 -0.05392375 -0.16177125 -0.026961874 0.15637888 -0.29118824 -0.11863225 -0.14559412 -0.07010087 -0.26961875 0.14020175 -0.22647975 -0.0647085 0.17794837
0000c0 d8 24 db c1 e7 c6 f9 4d 0b 00 4a 05 fb 4b 15 03
       -0.215695 0.1941255 -0.19951788 -0.33971962 -0.13480937 -0.31275776 -0.037746623 0.41521287 0.059316125 0.0 0.39903575 0.026961874 -0.026961874 0.40442812 0.11323988 0.016177125
0000d0 b9 f7 13 b3 eb 08 bb f2 fe 28 27 13 dd b0 d8 fd
       -0.38285863 -0.048531376 0.102455124 -0.41521287 -0.11323988 0.043139 -0.37207386 -0.07549325 -0.01078475 0.215695 0.21030262 0.102455124 -0.18873312 -0.43139 -0.215695 -0.016177125
0000e0 11 91 c9 e5 12 18 02 65 f6 0a c8 e1 14 c5 e6 0c
       0.09167037 -0.5985536 -0.2965806 -0.14559412 0.09706275 0.129417 0.01078475 0.5446299 -0.05392375 0.05392375 -0.301973 -0.16716363 0.1078475 -0.31815013 -0.14020175 0.0647085
0000f0 c7 e0 10 34 23 f9 39 24 e6 3a 1b f0 27 17 44 2b
       -0.30736536 -0.172556 0.086278 0.2804035 0.18873312 -0.037746623 0.30736536 0.1941255 -0.14020175 0.31275776 0.14559412 -0.086278 0.21030262 0.12402462 0.3666815 0.23187213
