edgetpu-models/models/fft/model.tflite (tflite, 2952 bytes, 2 tensors)

sequential/dense_2/MatMul i1 [2, 4] scale=0.031214742 zero_point=0
000000 7f d2 df 0c 15 0f cf 2f
       3.9642723 -1.4358782 -1.0300865 0.3745769 0.6555096 0.46822113 -1.5295223 1.4670929

sequential/dense_1/MatMul i1 [4, 4] scale=0.03393119 zero_point=0
000000 b4 a3 17 28 b6 c7 7f 75 a1 d8 58 42 7f 61 b5 c3
       -2.5787704 -3.1556005 0.7804173 1.3572476 -2.510908 -1.9340777 4.309261 3.969949 -3.2234628 -1.3572476 2.9859445 2.2394583 4.309261 3.2913253 -2.5448391 -2.0698025
