edgetpu-models/models/jmeint/model.tflite (tflite, 3904 bytes, 3 tensors)

sequential/dense_2/MatMul i1 [2, 8] scale=0.0102903955 zero_point=0
-0.95700675 0.37045425 0.78207004 1.2657187 -0.95700675 -0.9775876 -1.3068802 0.95700675
0.95700675 0.36016384 -0.37045425 -1.2760091 0.9775876 0.9672972 1.3068802 -0.95700675
00000000: a324 4c7b a3a1 815d 5d23 dc84 5f5e 7fa3

sequential/dense_1/MatMul i1 [8, 32] scale=0.0202058 zero_point=0
0.1212348 -0.18185219 0.6465856 -0.4849392 -1.1719364 -1.6164639 -0.4243218 -0.76782036
-1.1315248 -0.303087 0.4243218 -0.1414406 1.8589336 -0.3434986 0.505145 -0.6869972
-0.2828812 -0.505145 -1.111319 1.0709074 -1.4346118 1.0507016 -0.6263798 -0.303087
0.20205799 0.76782036 -0.9900842 -0.1212348 0.6869972 0.606174 -0.8284378 1.9599626
0.4647334 -0.4647334 -0.5455566 -0.6263798 0.4243218 -0.505145 -0.3232928 0.38391018
-0.2828812 -0.3232928 -0.36370438 -0.18185219 0.4647334 -0.1616464 0.0202058 -0.4445276
0.40411597 0.3434986 0.0202058 -0.5657624 -0.505145 0.0606174 -0.5253508 -0.101028994
0.1616464 0.505145 0.303087 -0.2424696 0.2626754 0.5253508 -0.303087 -0.36370438
-0.707203 0.74761456 0.9496726 1.0911132 -0.72740877 0.80823195 0.4647334 -0.606174
0.5657624 0.505145 0.6263798 0.303087 -0.9698784 0.2828812 -0.0808232 0.6263798
-0.72740877 -0.6465856 -0.101028994 0.9496726 0.78802615 -0.1616464 0.80823195 0.20205799
-0.2626754 -0.909261 -0.5859682 0.38391018 -0.4445276 -0.8890552 0.606174 0.5455566
-0.6869972 -0.38391018 0.9294668 -0.4445276 -1.0911132 -0.505145 -0.72740877 0.4849392
-0.0606174 0.303087 -0.505145 0.0 -0.5859682 -0.0606174 0.4647334 0.4243218
-0.505145 -1.1517305 -1.6972872 -0.78802615 -0.9496726 0.38391018 -1.111319 -1.6366698
0.1616464 -0.38391018 -1.1719364 -0.0606174 -2.2630496 -0.1212348 -0.6465856 -0.5657624
0.606174 -0.0202058 -0.76782036 -1.7579045 -0.0404116 0.606174 -0.74761456 -0.38391018
-1.6972872 -0.38391018 -1.0709074 -0.606174 0.20205799 -1.0709074 1.6366698 -0.4849392
1.5760523 1.111319 0.9294668 -0.20205799 0.40411597 0.74761456 0.2626754 0.6667914
-0.0808232 -0.606174 0.18185219 0.1414406 -0.80823195 0.101028994 -0.80823195 0.2424696
1.1315248 0.20205799 -0.1212348 -0.909261 -0.20205799 -1.1719364 -0.76782036 1.2729653
1.1719364 -0.0404116 -1.3335828 -0.8688494 0.8688494 0.5455566 0.8284378 -0.2828812
0.0202058 0.5253508 1.111319 -0.9496726 -1.7579045 -0.5455566 -2.5661366 0.74761456
-0.0202058 -1.212348 -0.72740877 -0.3434986 -0.2828812 -0.2424696 -1.0709074 1.4346118
-0.5455566 -0.9496726 1.0304958 1.2931712 -0.0404116 1.111319 -0.909261 -1.212348
-0.2222638 -0.6263798 1.0911132 -1.414406 2.5661366 -0.20205799 -0.40411597 -0.5455566
-0.707203 -0.20205799 -0.707203 0.909261 0.76782036 -0.6263798 1.6568756 -0.9294668
0.8688494 0.4445276 -0.0808232 -0.76782036 1.111319 -0.0202058 0.0 1.6770813
0.3434986 0.1616464 1.0507016 -1.4548175 1.4750234 -1.6568756 -0.9698784 0.4849392
1.2527596 0.36370438 -0.40411597 0.9496726 -1.1921421 0.76782036 0.8486436 1.01029
-0.0202058 0.4647334 -0.606174 2.0811973 -1.313377 -0.303087 0.18185219 -0.76782036
0.18185219 -1.0304958 -1.1719364 0.38391018 -0.76782036 -0.76782036 0.1414406 -0.1616464
00000000: 06f7 20e8 c6b0 ebda c8f1 15f9 5cef 19de
00000010: f2e7 c935 b934 e1f1 0a26 cffa 221e d761
00000020: 17e9 e5e1 15e7 f013 f2f0 eef7 17f8 01ea
00000030: 1411 01e4 e703 e6fb 0819 0ff4 0d1a f1ee
00000040: dd25 2f36 dc28 17e2 1c19 1f0f d00e fc1f
00000050: dce0 fb2f 27f8 280a f3d3 e313 ead4 1e1b
00000060: deed 2eea cae7 dc18 fd0f e700 e3fd 1715
00000070: e7c7 acd9 d113 c9af 08ed c6fd 90fa e0e4
00000080: 1eff daa9 fe1e dbed aced cbe2 0acb 51e8
00000090: 4e37 2ef6 1425 0d21 fce2 0907 d805 d80c
000000a0: 380a fad3 f6c6 da3f 3afe bed5 2b1b 29f2
000000b0: 011a 37d1 a9e5 8125 ffc4 dcef f2f4 cb47
000000c0: e5d1 3340 fe37 d3c4 f5e1 36ba 7ff6 ece5
000000d0: ddf6 dd2d 26e1 52d2 2b16 fcda 37ff 0053
000000e0: 1108 34b8 49ae d018 3e12 ec2f c526 2a32
000000f0: ff17 e267 bff1 09da 09cd c613 dada 07f8

sequential/dense/MatMul i1 [32, 18] scale=0.047345493 zero_point=0
-1.8938197 0.6628369 0.6154914 -1.0416008 0.0 -0.5208004 -3.2194936 0.0
-0.99425536 -0.6628369 -1.0416008 0.71018237 2.604002 -0.56814593 0.71018237 3.456221
-1.3256738 0.71018237 1.1836374 -1.3730193 0.8048734 -1.8938197 0.6154914 -2.3672748
-0.85221887 0.37876394 0.33141845 0.33141845 0.71018237 0.18938197 0.37876394 -0.14203648
1.3256738 0.5208004 -0.8995644 -0.094690986 0.37876394 -0.42610943 1.1836374 -0.6628369
-2.6513476 2.1305473 -0.47345492 0.6628369 -0.28407297 -0.56814593 2.3672748 -3.077457
0.5208004 0.6628369 -2.1305473 -0.5208004 2.1305473 -0.094690986 1.5624013 -0.5208004
0.33141845 2.604002 -0.94690984 0.6154914 1.8464742 -2.3672748 -0.71018237 -2.3199291
-0.28407297 0.8048734 -3.4088755 0.42610943 2.0358562 -1.7991288 -1.3256738 0.71018237
0.094690986 -1.1362919 -1.7044377 0.47345492 -1.9885107 -1.1362919 -1.9411652 1.2783283
-1.3730193 0.6154914 0.6628369 0.8995644 -0.7575279 2.2725837 0.99425536 2.0832016
-0.99425536 0.23672746 1.9885107 3.0301116 -2.0358562 1.6097468 1.6097468 0.14203648
-0.18938197 0.047345493 0.094690986 -1.1362919 -0.94690984 1.3730193 -0.8995644 -1.4203647
0.37876394 -2.7460387 -2.1305473 1.3730193 1.2309828 1.4677103 -1.8464742 -0.23672746
-0.18938197 -0.047345493 0.18938197 -1.1836374 0.33141845 -1.1362919 -1.3730193 -0.18938197
0.8995644 2.0832016 -0.8048734 -0.71018237 -1.3730193 1.4677103 1.2309828 -1.6097468
-2.1778927 -0.85221887 1.4203647 0.37876394 -1.2309828 0.37876394 0.37876394 0.94690984
0.0 -0.42610943 -1.3256738 -2.7460387 -0.6154914 0.14203648 0.99425536 0.6154914
0.8048734 -2.1778927 -1.4677103 1.1836374 -2.793384 -1.8938197 0.6628369 -2.0832016
-1.6570922 -0.99425536 2.3199291 1.4203647 -0.85221887 2.3199291 2.1778927 -0.47345492
2.3672748 1.8464742 1.4203647 0.71018237 -0.7575279 1.2309828 -0.85221887 -1.3256738
-1.3256738 -2.8407295 -0.37876394 -1.2783283 -0.37876394 0.85221887 -0.28407297 -1.1836374
0.5208004 0.56814593 1.5150558 0.047345493 1.4677103 -1.8464742 3.4088755 -0.6628369
-0.47345492 1.0416008 1.6570922 0.047345493 2.3672748 1.0889463 0.6628369 -1.1362919
0.047345493 0.6154914 -2.225238 -1.6570922 1.1836374 -6.0128775 -1.4677103 0.5208004
2.1778927 -1.2783283 1.1362919 2.888075 -1.1836374 1.1836374 1.8464742 1.3256738
-0.33141845 -1.6570922 1.7991288 -0.6628369 -2.7460387 1.6570922 -0.7575279 -2.1305473
0.94690984 -1.1836374 -0.094690986 0.33141845 -0.85221887 0.23672746 -0.094690986 -1.8464742
-1.5624013 -0.6154914 -0.33141845 -0.33141845 -0.85221887 -2.1305473 0.5208004 0.14203648
-1.0889463 -0.8048734 0.23672746 -0.8048734 -0.18938197 1.4677103 1.8938197 1.8464742
0.047345493 -2.5093112 -1.2309828 -0.28407297 0.8048734 -0.56814593 0.094690986 0.23672746
-0.37876394 0.0 -1.1362919 -3.2194936 -2.2725837 -0.47345492 -0.5208004 -2.5093112
00000000: d80e 0dea 00f5 bc00 ebf2 ea0f 37f4 0f49
00000010: e40f 19e3 11d8 0dce ee08 0707 0f04 08fd
00000020: 1c0b edfe 08f7 19f2 c82d f60e faf4 32bf
00000030: 0b0e d3f5 2dfe 21f5 0737 ec0d 27ce f1cf
00000040: fa11 b809 2bda e40f 02e8 dc0a d6e8 d71b
00000050: e30d 0e13 f030 152c eb05 2a40 d522 2203
00000060: fc01 02e8 ec1d ede2 08c6 d31d 1a1f d9fb
00000070: fcff 04e7 07e8 e3fc 132c eff1 e31f 1ade
00000080: d2ee 1e08 e608 0814 00f7 e4c6 f303 150d
00000090: 11d2 e119 c5d8 0ed4 ddeb 311e ee31 2ef6
000000a0: 3227 1e0f f01a eee4 e4c4 f8e5 f812 fae7
000000b0: 0b0c 2001 1fd9 48f2 f616 2301 3217 0ee8
000000c0: 010d d1dd 1981 e10b 2ee5 183d e719 271c
000000d0: f9dd 26f2 c623 f0d3 14e7 fe07 ee05 fed9
000000e0: dff3 f9f9 eed3 0b03 e9ef 05ef fc1f 2827
000000f0: 01cb e6fa 11f4 0205 f800 e8bc d0f6 f5cb
