tf/kmeans/model.tflite (tflite, 4392 bytes, 3 tensors)

sequential/dense_2/MatMul i1 [1, 32] scale=0.003845701 zero_point=0
000000 ae 68 ed 0c e8 62 7f 5b 64 1a c8 b3 42 c4 22 28
       -0.3153475 0.3999529 -0.07306832 0.046148412 -0.092296824 0.3768787 0.48840404 0.34995878 0.3845701 0.09998822 -0.21535926 -0.29611897 0.25381628 -0.23074207 0.13075383 0.15382804
000010 43 f0 a3 91 ce d7 a0 96 e5 30 62 c3 f0 36 08 b9
       0.25766197 -0.061531216 -0.3576502 -0.42687282 -0.19228505 -0.15767375 -0.3691873 -0.4076443 -0.10383393 0.18459365 0.3768787 -0.23458776 -0.061531216 0.20766786 0.030765608 -0.27304476

sequential/dense_1/MatMul i1 [32, 32] scale=0.0033795822 zero_point=0
000000 ff 2a 1d ce 5f 10 e3 2b 04 15 ad a9 07 e8 4a f7
       -0.0033795822 0.14194246 0.09800788 -0.16897911 0.3210603 0.054073315 -0.09800788 0.14532204 0.013518329 0.07097123 -0.28050533 -0.29402366 0.023657076 -0.08110997 0.25008908 -0.030416239
000010 1c 52 20 c4 20 f1 0f b2 ba 25 36 f9 cd d1 de d4
       0.094628304 0.27712575 0.10814663 -0.20277493 0.10814663 -0.05069373 0.05069373 -0.2636074 -0.23657076 0.12504454 0.18249744 -0.023657076 -0.17235869 -0.15884036 -0.1149058 -0.14870162
000020 f9 35 db 3c b7 ad cd d8 4e 32 6a b6 d9 cb 38 43
       -0.023657076 0.17911786 -0.12504454 0.20277493 -0.2467095 -0.28050533 -0.17235869 -0.13518329 0.2636074 0.16897911 0.35823572 -0.25008908 -0.1318037 -0.17911786 0.18925661 0.22643201
000030 5e 56 d7 f1 ad 2b 9a 41 29 67 2d 1f 08 eb 2b 10
       0.31768072 0.29064408 -0.13856287 -0.05069373 -0.28050533 0.14532204 -0.34471738 0.21967284 0.13856287 0.34809697 0.15208119 0.10476705 0.027036658 -0.07097123 0.14532204 0.054073315
000040 ee ac 30 9e f1 c7 2e 3b 98 18 9d d8 9f a9 40 c2
       -0.060832478 -0.2838849 0.16221994 -0.33119905 -0.05069373 -0.19263619 0.15546077 0.19939534 -0.35147655 0.08110997 -0.33457863 -0.13518329 -0.32781947 -0.29402366 0.21629326 -0.2095341
000050 aa de c5 45 39 30 03 ab fd f5 ba 44 07 a9 36 c5
       -0.29064408 -0.1149058 -0.19939534 0.23319118 0.19263619 0.16221994 0.010138746 -0.2872645 -0.010138746 -0.037175406 -0.23657076 0.2298116 0.023657076 -0.29402366 0.18249744 -0.19939534
000060 1c 27 1f 0f 3c b3 ea 39 f9 ea 34 ca 3c cd 2c 1c
       0.094628304 0.1318037 0.10476705 0.05069373 0.20277493 -0.26022783 -0.07435081 0.19263619 -0.023657076 -0.07435081 0.17573828 -0.18249744 0.20277493 -0.17235869 0.14870162 0.094628304
000070 be e3 bd 07 c6 1f b4 62 14 ef 39 dc b6 40 c0 41
       -0.22305243 -0.09800788 -0.22643201 0.023657076 -0.19601576 0.10476705 -0.25684825 0.33119905 0.067591645 -0.0574529 0.19263619 -0.121664956 -0.25008908 0.21629326 -0.21629326 0.21967284
000080 30 d4 29 42 0e 40 2a d7 de bd 0a 4b f4 86 d1 2a
       0.16221994 -0.14870162 0.13856287 0.22305243 0.047314152 0.21629326 0.14194246 -0.13856287 -0.1149058 -0.22643201 0.033795822 0.25346866 -0.040554985 -0.41230902 -0.15884036 0.14194246
000090 ab ed 11 b7 f5 e7 56 cb 3e b9 db 39 e1 af 0d d4
       -0.2872645 -0.06421206 0.0574529 -0.2467095 -0.037175406 -0.084489554 0.29064408 -0.17911786 0.2095341 -0.23995033 -0.12504454 0.19263619 -0.10476705 -0.27374616 0.04393457 -0.14870162
0000a0 2e c4 34 ec e5 f9 55 fb ef 3b c4 e0 af d6 c3 ea
       0.15546077 -0.20277493 0.17573828 -0.067591645 -0.09124872 -0.023657076 0.2872645 -0.016897911 -0.0574529 0.19939534 -0.20277493 -0.10814663 -0.27374616 -0.14194246 -0.20615451 -0.07435081
0000b0 fb e2 22 df b3 bf 9d d4 09 08 2b d7 01 cc dc d8
       -0.016897911 -0.10138746 0.1149058 -0.11152621 -0.26022783 -0.21967284 -0.33457863 -0.14870162 0.030416239 0.027036658 0.14532204 -0.13856287 0.0033795822 -0.17573828 -0.121664956 -0.13518329
0000c0 c8 4a 3f d9 95 b6 32 7d ce e7 73 c0 d8 f4 aa ff
       -0.18925661 0.25008908 0.21291368 -0.1318037 -0.3616153 -0.25008908 0.16897911 0.42244777 -0.16897911 -0.084489554 0.38865197 -0.21629326 -0.13518329 -0.040554985 -0.29064408 -0.0033795822
0000d0 29 0e b6 10 af 74 df cb 07 4e b6 ca 59 b1 b5 48
       0.13856287 0.047314152 -0.25008908 0.054073315 -0.27374616 0.39203152 -0.11152621 -0.17911786 0.023657076 0.2636074 -0.25008908 -0.18249744 0.30078283 -0.266987 -0.25346866 0.24332991
0000e0 a3 2c 51 4a 9f 92 bd 18 09 d2 0d 4c d1 3e 1e d2
       -0.31430113 0.14870162 0.27374616 0.25008908 -0.32781947 -0.37175405 -0.22643201 0.08110997 0.030416239 -0.15546077 0.04393457 0.25684825 -0.15884036 0.2095341 0.10138746 -0.15546077
0000f0 0e c8 e1 e8 2b 65 39 46 63 32 41 0a fa 3e d7 f6
       0.047314152 -0.18925661 -0.10476705 -0.08110997 0.14532204 0.3413378 0.19263619 0.23657076 0.33457863 0.16897911 0.21967284 0.033795822 -0.020277493 0.2095341 -0.13856287 -0.033795822

sequential/dense/MatMul i1 [32, 6] scale=0.0057951915 zero_point=0
000000 50 59 25 0d d1 11 07 d8 07 21 ec 33 98 f8 e9 2f
       0.46361533 0.51577204 0.21442209 0.07533749 -0.272374 0.09851825 0.04056634 -0.23180766 0.04056634 0.19124132 -0.11590383 0.29555476 -0.60269994 -0.046361532 -0.13328941 0.272374
000010 37 11 bb a1 04 3e 4b e3 f5 3d 07 ab 93 dd 3d 5c
       0.31873554 0.09851825 -0.39986822 -0.5505432 0.023180766 0.35930187 0.43463936 -0.16806056 -0.06374711 0.35350668 0.04056634 -0.4925913 -0.6316759 -0.2028317 0.35350668 0.53315765
000020 66 a1 b0 db e9 d1 f5 e2 59 36 9b 96 af 3b 02 2c
       0.5911095 -0.5505432 -0.46361533 -0.21442209 -0.13328941 -0.272374 -0.06374711 -0.17385575 0.51577204 0.31294033 -0.58531433 -0.6142903 -0.4694105 0.3419163 0.011590383 0.25498843
000030 d6 a1 c4 24 17 2a f5 f4 1b bf d4 e1 b3 a9 b7 38
       -0.24339804 -0.5505432 -0.3477115 0.2086269 0.13328941 0.24339804 -0.06374711 -0.069542296 0.15647016 -0.37668744 -0.25498843 -0.17965093 -0.44622976 -0.5041817 -0.42304897 0.32453072
000040 27 cc f7 b4 dc d9 0d bf 0e 51 1a 0c cf 2c aa b5
       0.22601247 -0.30134997 -0.052156724 -0.44043455 -0.2086269 -0.22601247 0.07533749 -0.37668744 0.08113268 0.4694105 0.15067498 0.069542296 -0.2839644 0.25498843 -0.49838647 -0.43463936
000050 b5 26 32 dd d8 30 18 c9 e5 14 e6 8d ef 3a 25 e1
       -0.43463936 0.22021727 0.28975958 -0.2028317 -0.23180766 0.27816918 0.13908459 -0.31873554 -0.15647016 0.11590383 -0.15067498 -0.66644704 -0.09851825 0.3361211 0.21442209 -0.17965093
000060 ab f5 b4 32 5b 38 a3 db 0f f1 2a f9 35 42 01 90
       -0.4925913 -0.06374711 -0.44043455 0.28975958 0.5273624 0.32453072 -0.5389528 -0.21442209 0.086927876 -0.086927876 0.24339804 -0.04056634 0.30714515 0.38248265 0.0057951915 -0.64906144
000070 fd 20 00 cb df 18 fb 32 e1 e3 2d 9f 0c f6 ce e0
       -0.017385574 0.18544613 0.0 -0.30714515 -0.19124132 0.13908459 -0.028975958 0.28975958 -0.17965093 -0.16806056 0.2607836 -0.56213355 0.069542296 -0.057951916 -0.28975958 -0.18544613
000080 90 63 20 c5 31 50 57 bd 85 21 d1 ec 9d e6 42 2c
       -0.64906144 0.573724 0.18544613 -0.3419163 0.2839644 0.46361533 0.5041817 -0.38827783 -0.71280855 0.19124132 -0.272374 -0.11590383 -0.573724 -0.15067498 0.38248265 0.25498843
000090 bb a1 06 23 57 fe b3 ca 81 66 1b df 21 d1 fa aa
       -0.39986822 -0.5505432 0.034771148 0.2028317 0.5041817 -0.011590383 -0.44622976 -0.31294033 -0.73598933 0.5911095 0.15647016 -0.19124132 0.19124132 -0.272374 -0.034771148 -0.49838647
0000a0 ff 27 b7 d7 af f2 fb 3e be a1 f3 61 39 ef 01 e7
       -0.0057951915 0.22601247 -0.42304897 -0.23760284 -0.4694105 -0.08113268 -0.028975958 0.35930187 -0.38248265 -0.5505432 -0.07533749 0.56213355 0.3303259 -0.09851825 0.0057951915 -0.14487979
0000b0 e5 f8 49 26 39 f5 27 bc 8e e5 a0 a7 d6 2d 44 c4
       -0.15647016 -0.046361532 0.42304897 0.22021727 0.3303259 -0.06374711 0.22601247 -0.394073 -0.6606518 -0.15647016 -0.55633837 -0.51577204 -0.24339804 0.2607836 0.394073 -0.3477115
