edgetpu-models/models/jpeg/model.tflite (tflite, 4600 bytes, 2 tensors)

sequential/dense_1/MatMul i1 [64, 16] scale=0.0031164207 zero_point=0
0	0xfb	-0.015582103
1	0xdb	-0.11530757
2	0x2f	0.14647177
3	0x1d	0.0903762
4	0xd3	-0.14023893
5	0xb9	-0.22126587
6	0x14	0.062328413
7	0x81	-0.39578542
8	0xa7	-0.27736145
9	0xf0	-0.04986273
10	0x2d	0.14023893
11	0x04	0.012465683
12	0xfe	-0.0062328414
13	0xeb	-0.065444835
14	0xcc	-0.16205388
15	0xd8	-0.124656826
16	0x23	0.10907473
17	0xd4	-0.13712251
18	0x2c	0.13712251
19	0x04	0.012465683
20	0x0a	0.031164207
21	0xda	-0.11842398
22	0xc8	-0.17451955
23	0xe6	-0.08102694
24	0x49	0.22749871
25	0x1a	0.08102694
26	0x3b	0.18386883
27	0x52	0.2555465
28	0xc1	-0.19633451
29	0x84	-0.38643616
30	0x46	0.21814945
31	0xb8	-0.2243823
32	0xc0	-0.19945092
33	0x38	0.17451955
34	0x1a	0.08102694
35	0x9a	-0.3178749
36	0x4e	0.24308081
37	0x0e	0.04362989
38	0xaf	-0.25243008
39	0xb6	-0.23061514
40	0x0d	0.04051347
41	0x0e	0.04362989
42	0xc3	-0.19010167
43	0xe8	-0.0747941
44	0x26	0.11842398
45	0x35	0.1651703
46	0x1e	0.09349262
47	0xf8	-0.024931366
48	0xa6	-0.28047785
49	0x02	0.0062328414
50	0xea	-0.068561256
51	0xa6	-0.28047785
52	0x29	0.12777326
53	0x4b	0.23373155
54	0xba	-0.21814945
55	0x11	0.052979153
56	0x36	0.16828671
57	0xea	-0.068561256
58	0xeb	-0.065444835
59	0x61	0.3022928
60	0x1b	0.084143355
61	0xf9	-0.021814944
62	0xab	-0.26489577
63	0x04	0.012465683
64	0x19	0.07791052
65	0xef	-0.052979153
66	0xe1	-0.09660904
67	0x32	0.15582104
68	0x09	0.028047787
69	0x5b	0.28359428
70	0xdd	-0.10907473
71	0x0c	0.03739705
72	0xb2	-0.24308081
73	0x63	0.30852565
74	0x4f	0.24619724
75	0xd4	-0.13712251
76	0x0b	0.034280628
77	0xa3	-0.28982714
78	0xd5	-0.13400608
79	0xeb	-0.065444835
80	0xb5	-0.23373155
81	0x91	-0.3459227
82	0x2b	0.13400608
83	0x24	0.11219115
84	0x59	0.27736145
85	0xab	-0.26489577
86	0xe3	-0.0903762
87	0x44	0.21191661
88	0xdd	-0.10907473
89	0x42	0.20568377
90	0x01	0.0031164207
91	0xe7	-0.07791052
92	0xda	-0.11842398
93	0x20	0.09972546
94	0x3e	0.19321808
95	0xfc	-0.012465683
96	0x51	0.25243008
97	0xe3	-0.0903762
98	0x1e	0.09349262
99	0xcb	-0.1651703
100	0x20	0.09972546
101	0x05	0.015582103
102	0xda	-0.11842398
103	0xfa	-0.018698525
104	0xe2	-0.09349262
105	0x0f	0.04674631
106	0x1e	0.09349262
107	0xf1	-0.04674631
108	0xc5	-0.18386883
109	0x1e	0.09349262
110	0xea	-0.068561256
111	0x10	0.04986273
112	0xb5	-0.23373155
113	0x48	0.2243823
114	0x3e	0.19321808
115	0xcf	-0.15270461
116	0x2b	0.13400608
117	0x41	0.20256734
118	0x0d	0.04051347
119	0x26	0.11842398
120	0xe9	-0.07167768
121	0xbe	-0.20568377
122	0x28	0.124656826
123	0xcd	-0.15893745
124	0xf5	-0.034280628
125	0xc5	-0.18386883
126	0x27	0.121540405
127	0x3e	0.19321808
128	0xf0	-0.04986273
129	0x46	0.21814945
130	0x21	0.102841884
131	0x0a	0.031164207
132	0xee	-0.056095574
133	0x9a	-0.3178749
134	0x3a	0.1807524
135	0x2b	0.13400608
136	0xa7	-0.27736145
137	0x3c	0.18698524
138	0x0e	0.04362989
139	0x2e	0.14335535
140	0xaf	-0.25243008
141	0xf6	-0.031164207
142	0x13	0.05921199
143	0xfd	-0.009349262
144	0x00	0.0
145	0xf0	-0.04986273
146	0x50	0.24931365
147	0xef	-0.052979153
148	0xc7	-0.17763598
149	0x74	0.3615048
150	0xa7	-0.27736145
151	0xbd	-0.20880018
152	0xd6	-0.13088967
153	0x35	0.1651703
154	0xbf	-0.20256734
155	0x44	0.21191661
156	0xac	-0.26177934
157	0x2a	0.13088967
158	0x0a	0.031164207
159	0x55	0.26489577
160	0x1f	0.09660904
161	0xeb	-0.065444835
162	0x21	0.102841884
163	0xed	-0.05921199
164	0x28	0.124656826
165	0xf9	-0.021814944
166	0xfb	-0.015582103
167	0x14	0.062328413
168	0x26	0.11842398
169	0xf2	-0.04362989
170	0xbe	-0.20568377
171	0x1f	0.09660904
172	0x45	0.21503302
173	0xe9	-0.07167768
174	0xd8	-0.124656826
175	0xd3	-0.14023893
176	0xe6	-0.08102694
177	0x0d	0.04051347
178	0xec	-0.062328413
179	0x29	0.12777326
180	0x0a	0.031164207
181	0xc4	-0.18698524
182	0x36	0.16828671
183	0xe6	-0.08102694
184	0xd8	-0.124656826
185	0x0b	0.034280628
186	0xfe	-0.0062328414
187	0x2b	0.13400608
188	0xf4	-0.03739705
189	0x04	0.012465683
190	0x0b	0.034280628
191	0x0a	0.031164207
192	0x14	0.062328413
193	0x13	0.05921199
194	0x07	0.021814944
195	0x0f	0.04674631
196	0xea	-0.068561256
197	0xf1	-0.04674631
198	0x03	0.009349262
199	0x08	0.024931366
200	0x0b	0.034280628
201	0x0e	0.04362989
202	0xf5	-0.034280628
203	0x04	0.012465683
204	0xfb	-0.015582103
205	0xfa	-0.018698525
206	0xf1	-0.04674631
207	0xe7	-0.07791052
208	0x08	0.024931366
209	0xf0	-0.04986273
210	0xfb	-0.015582103
211	0xe5	-0.084143355
212	0x0e	0.04362989
213	0x41	0.20256734
214	0xcb	-0.1651703
215	0x40	0.19945092
216	0x0b	0.034280628
217	0xd7	-0.12777326
218	0xd7	-0.12777326
219	0xd9	-0.121540405
220	0x0e	0.04362989
221	0xf7	-0.028047787
222	0x37	0.17140314
223	0xcb	-0.1651703
224	0xcb	-0.1651703
225	0x11	0.052979153
226	0x1a	0.08102694
227	0x1e	0.09349262
228	0xf9	-0.021814944
229	0xc6	-0.1807524
230	0xee	-0.056095574
231	0xfb	-0.015582103
232	0xe5	-0.084143355
233	0xf7	-0.028047787
234	0x23	0.10907473
235	0x1e	0.09349262
236	0x08	0.024931366
237	0x25	0.11530757
238	0x22	0.105958305
239	0xf0	-0.04986273
240	0xe1	-0.09660904
241	0xfd	-0.009349262
242	0xd1	-0.14647177
243	0x13	0.05921199
244	0xfb	-0.015582103
245	0xf6	-0.031164207
246	0x2e	0.14335535
247	0xed	-0.05921199
248	0x03	0.009349262
249	0x0a	0.031164207
250	0x29	0.12777326
251	0xea	-0.068561256
252	0xe5	-0.084143355
253	0x0f	0.04674631
254	0x13	0.05921199
255	0x05	0.015582103

sequential/dense/MatMul i1 [16, 64] scale=0.0026255602 zero_point=0
0	0xba	-0.18378921
1	0xdb	-0.09714573
2	0xd7	-0.10764796
3	0x11	0.04463452
4	0x0c	0.03150672
5	0xeb	-0.055136763
6	0xba	-0.18378921
7	0xcf	-0.12865245
8	0x25	0.09714573
9	0xb1	-0.20741925
10	0x28	0.10502241
11	0x18	0.06301344
12	0xdc	-0.09452017
13	0xcd	-0.13390356
14	0x16	0.057762325
15	0xaa	-0.22579817
16	0xd3	-0.118150204
17	0x25	0.09714573
18	0xe0	-0.084017925
19	0x1e	0.07876681
20	0xd6	-0.110273525
21	0x51	0.21267037
22	0xe8	-0.06301344
23	0xf0	-0.042008962
24	0x06	0.01575336
25	0xf4	-0.03150672
26	0x11	0.04463452
27	0x36	0.14178024
28	0x4d	0.20216814
29	0xe1	-0.08139236
30	0xe6	-0.06826457
31	0xdd	-0.091894604
32	0xf3	-0.034132283
33	0x07	0.01837892
34	0x26	0.09977128
35	0xdc	-0.09452017
36	0x2a	0.110273525
37	0x07	0.01837892
38	0x29	0.10764796
39	0xe2	-0.07876681
40	0x18	0.06301344
41	0xe2	-0.07876681
42	0xe5	-0.07089012
43	0x15	0.055136763
44	0x2a	0.110273525
45	0x04	0.010502241
46	0x05	0.013127801
47	0xce	-0.13127801
48	0xd8	-0.10502241
49	0x17	0.060387883
50	0xd7	-0.10764796
51	0xee	-0.047260083
52	0x09	0.023630042
53	0xef	-0.04463452
54	0xdf	-0.08664349
55	0xf8	-0.021004481
56	0xfa	-0.01575336
57	0xf6	-0.026255602
58	0xdf	-0.08664349
59	0x16	0.057762325
60	0xd6	-0.110273525
61	0x17	0.060387883
62	0xef	-0.04463452
63	0xd0	-0.12602688
64	0x0a	0.026255602
65	0xd7	-0.10764796
66	0xfe	-0.0052511203
67	0x3d	0.16015917
68	0x2f	0.12340133
69	0xc9	-0.14440581
70	0xdf	-0.08664349
71	0xc7	-0.14965692
72	0x07	0.01837892
73	0x17	0.060387883
74	0x3d	0.16015917
75	0x1c	0.07351568
76	0xf3	-0.034132283
77	0xe4	-0.07351568
78	0x19	0.065639004
79	0xfb	-0.013127801
80	0xcc	-0.13652913
81	0x2c	0.11552465
82	0xd4	-0.11552465
83	0x31	0.12865245
84	0x1f	0.08139236
85	0xf7	-0.023630042
86	0x26	0.09977128
87	0xfe	-0.0052511203
88	0xff	-0.0026255602
89	0xd9	-0.102396846
90	0xfe	-0.0052511203
91	0x19	0.065639004
92	0x5c	0.24155153
93	0xe3	-0.076141246
94	0x24	0.09452017
95	0xc4	-0.15753362
96	0xb5	-0.19691701
97	0xcc	-0.13652913
98	0x19	0.065639004
99	0xdf	-0.08664349
100	0x10	0.042008962
101	0xdd	-0.091894604
102	0x3c	0.15753362
103	0xd5	-0.11289909
104	0xcc	-0.13652913
105	0xc1	-0.1654103
106	0xf1	-0.039383404
107	0x1c	0.07351568
108	0x53	0.2179215
109	0x01	0.0026255602
110	0xcd	-0.13390356
111	0xc9	-0.14440581
112	0xc3	-0.16015917
113	0x04	0.010502241
114	0xbd	-0.17591253
115	0x08	0.021004481
116	0xf3	-0.034132283
117	0xa2	-0.24680266
118	0x2c	0.11552465
119	0xb2	-0.20479369
120	0xe6	-0.06826457
121	0xc5	-0.15490805
122	0xfb	-0.013127801
123	0xea	-0.057762325
124	0x12	0.047260083
125	0x16	0.057762325
126	0xc8	-0.14703137
127	0xbf	-0.1706614
128	0x1d	0.076141246
129	0xef	-0.04463452
130	0xee	-0.047260083
131	0xbf	-0.1706614
132	0x05	0.013127801
133	0xb6	-0.19429146
134	0xfc	-0.010502241
135	0x28	0.10502241
136	0xff	-0.0026255602
137	0x00	0.0
138	0xe8	-0.06301344
139	0xc7	-0.14965692
140	0xf3	-0.034132283
141	0x1b	0.07089012
142	0xdf	-0.08664349
143	0xfb	-0.013127801
144	0xff	-0.0026255602
145	0x32	0.13127801
146	0x17	0.060387883
147	0x08	0.021004481
148	0x92	-0.28881162
149	0xe5	-0.07089012
150	0xeb	-0.055136763
151	0x08	0.021004481
152	0xfd	-0.00787668
153	0xf3	-0.034132283
154	0xe2	-0.07876681
155	0xe2	-0.07876681
156	0x4d	0.20216814
157	0xda	-0.09977128
158	0x57	0.22842373
159	0x0b	0.028881162
160	0x55	0.22317262
161	0xd9	-0.102396846
162	0x2a	0.110273525
163	0x37	0.14440581
164	0x25	0.09714573
165	0x28	0.10502241
166	0xef	-0.04463452
167	0x3f	0.1654103
168	0x0f	0.039383404
169	0x38	0.14703137
170	0xe7	-0.065639004
171	0x23	0.091894604
172	0xe0	-0.084017925
173	0x5d	0.24417709
174	0x27	0.102396846
175	0x08	0.021004481
176	0x14	0.052511204
177	0xda	-0.09977128
178	0xd9	-0.102396846
179	0x25	0.09714573
180	0xdb	-0.09714573
181	0x5a	0.23630041
182	0xde	-0.08926904
183	0xd9	-0.102396846
184	0xc4	-0.15753362
185	0x27	0.102396846
186	0xf2	-0.03675784
187	0x15	0.055136763
188	0xf5	-0.028881162
189	0xf4	-0.03150672
190	0xe1	-0.08139236
191	0x05	0.013127801
192	0xef	-0.04463452
193	0xd4	-0.11552465
194	0xe2	-0.07876681
195	0xed	-0.04988564
196	0xd2	-0.12077577
197	0xf1	-0.039383404
198	0xf1	-0.039383404
199	0xf2	-0.03675784
200	0x17	0.060387883
201	0xd1	-0.12340133
202	0x30	0.12602688
203	0xc2	-0.16278473
204	0xbe	-0.17328697
205	0x0d	0.034132283
206	0xdb	-0.09714573
207	0xc3	-0.16015917
208	0xe4	-0.07351568
209	0x12	0.047260083
210	0xc5	-0.15490805
211	0x47	0.18641478
212	0xa9	-0.22842373
213	0xdd	-0.091894604
214	0xd1	-0.12340133
215	0x0e	0.03675784
216	0x3c	0.15753362
217	0xe3	-0.076141246
218	0x47	0.18641478
219	0xb7	-0.19166589
220	0x21	0.08664349
221	0xd8	-0.10502241
222	0x14	0.052511204
223	0xf8	-0.021004481
224	0xea	-0.057762325
225	0x24	0.09452017
226	0x37	0.14440581
227	0xec	-0.052511204
228	0x13	0.04988564
229	0xf1	-0.039383404
230	0x0c	0.03150672
231	0x26	0.09977128
232	0xfc	-0.010502241
233	0x25	0.09714573
234	0xf3	-0.034132283
235	0xfe	-0.0052511203
236	0x0d	0.034132283
237	0xdc	-0.09452017
238	0x0a	0.026255602
239	0xf9	-0.01837892
240	0xe4	-0.07351568
241	0x39	0.14965692
242	0xc6	-0.15228249
243	0x24	0.09452017
244	0x0e	0.03675784
245	0x06	0.01575336
246	0x36	0.14178024
247	0xf9	-0.01837892
248	0xf3	-0.034132283
249	0xcc	-0.13652913
250	0x0a	0.026255602
251	0x0a	0.026255602
252	0xd3	-0.118150204
253	0xfb	-0.013127801
254	0x06	0.01575336
255	0x3a	0.15228249
