tf/inversek2j/model.tflite (tflite, 4304 bytes, 3 tensors)

sequential/dense_2/MatMul i1 [2, 32] scale=0.009932268 zero_point=0
-0.12911949 -0.13905177 0.17878082 0.019864537 0.109254956 0.26817125 -0.25823897 -0.13905177
0.1887131 0.08939041 0.25823897 0.14898403 -0.74492013 0.3774262 0.43701982 -0.009932268
1.2613981 0.20857763 -0.33769712 0.099322684 -0.009932268 -0.109254956 0.25823897 -0.28803578
0.32776487 0.27810353 -0.19864537 0.32776487 -0.39729074 -0.23837444 -0.16884856 -0.1589163
0.21850991 0.23837444 -0.5661393 0.22844218 0.21850991 0.21850991 0.1887131 -0.42708755
0.12911949 0.3079003 -0.1589163 0.29796806 0.47674888 0.049661342 -0.1589163 0.74492013
0.17878082 0.55620706 0.17878082 -0.41715527 -0.33769712 0.019864537 -0.14898403 0.29796806
0.5959361 0.039729074 0.17878082 -0.28803578 -0.029796805 -0.05959361 0.9038364 0.33769712
00000000: f3f2 1202 0b1b e6f2 1309 1a0f b526 2cff
00000010: 7f15 de0a fff5 1ae3 211c ec21 d8e8 eff0
00000020: 1618 c717 1616 13d5 0d1f f01e 3005 f04b
00000030: 1238 12d6 de02 f11e 3c04 12e3 fdfa 5b22

sequential/dense_1/MatMul i1 [32, 32] scale=0.013153654 zero_point=0
-0.3683023 -0.30253404 -0.13153654 0.0 -0.27622673 -0.07892192 -0.013153654 -0.28938037
0.03946096 -0.5129925 -0.4866852 0.09207557 -0.47353154 -0.23676577 -0.28938037 -0.5392998
0.14469019 0.026307307 -0.1973048 -0.1973048 0.06576827 -0.38145596 -0.3156877 -0.32884133
-0.3156877 -0.15784384 -0.28938037 -0.28938037 -0.3683023 -0.1709975 -0.38145596 0.5261462
-0.06576827 -0.026307307 -0.23676577 -0.052614614 -0.06576827 -0.15784384 0.052614614 -0.118382886
-0.3683023 -0.09207557 -0.40776327 0.18415114 -0.68399 -0.21045846 -0.13153654 -0.32884133
-0.18415114 -0.47353154 -0.2630731 -0.1973048 -0.1709975 -0.32884133 0.09207557 -0.2630731
0.09207557 -0.15784384 -0.10522923 -0.46037787 0.09207557 -0.35514864 -0.44722423 -0.35514864
0.013153654 -0.18415114 -0.56560713 -0.72345096 0.5129925 -0.9339094 -0.14469019 -0.27622673
-0.43407056 -0.118382886 -0.2630731 -0.46037787 -0.14469019 0.23676577 -0.7760656 -0.21045846
-0.13153654 -0.35514864 -0.35514864 -0.21045846 -0.44722423 -0.1973048 0.30253404 -0.3683023
-0.14469019 0.07892192 -0.7629119 0.14469019 -0.22361211 -0.21045846 0.21045846 -0.42091691
0.10522923 0.013153654 -0.21045846 -0.026307307 -0.57876074 -0.118382886 0.1973048 0.18415114
-0.013153654 -0.42091691 -0.43407056 0.18415114 -0.15784384 -0.46037787 -0.28938037 -0.14469019
-0.013153654 -0.3946096 -0.03946096 0.118382886 -0.24991941 -0.4866852 -0.03946096 -0.23676577
-0.026307307 -0.6182217 -0.14469019 -0.026307307 -0.21045846 -0.2630731 -0.2630731 -0.1709975
-0.118382886 -0.026307307 0.14469019 -0.14469019 -0.40776327 -0.24991941 0.10522923 -0.14469019
-0.10522923 -0.55245346 0.1709975 -0.026307307 -0.43407056 -0.14469019 0.07892192 0.052614614
0.13153654 -0.2630731 -0.3156877 -0.3683023 -0.118382886 -0.44722423 -0.47353154 -0.3683023
-0.15784384 -0.55245346 -0.30253404 -0.09207557 -0.09207557 -0.6050681 -0.40776327 -0.118382886
-0.18415114 0.27622673 -0.07892192 -0.24991941 -0.42091691 -0.03946096 -0.35514864 -0.22361211
-0.8023729 0.21045846 -0.21045846 -0.46037787 0.23676577 0.013153654 -0.07892192 0.10522923
0.10522923 0.1709975 -0.32884133 -0.24991941 -0.1973048 0.118382886 -0.4866852 -0.06576827
-0.23676577 -0.09207557 -0.56560713 -0.28938037 -0.10522923 -0.3683023 0.118382886 -0.14469019
0.13153654 -0.09207557 -0.35514864 -0.24991941 -0.35514864 -0.35514864 -0.38145596 0.13153654
-0.30253404 -0.07892192 0.14469019 0.28938037 -0.5129925 0.0 -0.3683023 -0.13153654
0.03946096 -0.23676577 0.10522923 0.1973048 -0.7102973 -0.052614614 0.0 -0.15784384
-0.42091691 -0.40776327 -0.22361211 -0.026307307 0.06576827 0.28938037 -0.13153654 -0.09207557
0.15784384 -0.81552655 -0.4866852 -0.64452904 0.118382886 -0.5261462 0.07892192 0.026307307
-0.1973048 -0.21045846 -0.341995 -0.42091691 -0.23676577 -0.10522923 -0.46037787 -0.06576827
-0.1973048 -0.47353154 -0.43407056 -0.2630731 -0.3683023 -0.27622673 0.5392998 -0.03946096
-0.42091691 0.1973048 -0.7102973 -0.30253404 -0.013153654 -0.03946096 0.10522923 0.03946096
00000000: e4e9 f600 ebfa ffea 03d9 db07 dcee ead7
00000010: 0b02 f1f1 05e3 e8e7 e8f4 eaea e4f3 e328
00000020: fbfe eefc fbf4 04f7 e4f9 e10e ccf0 f6e7
00000030: f2dc ecf1 f3e7 07ec 07f4 f8dd 07e5 dee5
00000040: 01f2 d5c9 27b9 f5eb dff7 ecdd f512 c5f0
00000050: f6e5 e5f0 def1 17e4 f506 c60b eff0 10e0
00000060: 0801 f0fe d4f7 0f0e ffe0 df0e f4dd eaf5
00000070: ffe2 fd09 eddb fdee fed1 f5fe f0ec ecf3
00000080: f7fe 0bf5 e1ed 08f5 f8d6 0dfe dff5 0604
00000090: 0aec e8e4 f7de dce4 f4d6 e9f9 f9d2 e1f7
000000a0: f215 faed e0fd e5ef c310 f0dd 1201 fa08
000000b0: 080d e7ed f109 dbfb eef9 d5ea f8e4 09f5
000000c0: 0af9 e5ed e5e5 e30a e9fa 0b16 d900 e4f6
000000d0: 03ee 080f cafc 00f4 e0e1 effe 0516 f6f9
000000e0: 0cc2 dbcf 09d8 0602 f1f0 e6e0 eef8 ddfb
000000f0: f1dc dfec e4eb 29fd e00f cae9 fffd 0803

sequential/dense/MatMul i1 [32, 2] scale=0.03394351 zero_point=0
-2.7494245 -3.0209725 2.4439328 -2.1044977 2.3421023 -2.1044977 2.2742152 -2.2742152
-0.37337863 -4.310826 2.5118198 -2.647594 -3.3943512 0.16971755 -3.4282947 -0.71281374
1.6632321 0.8825313 0.40732214 -3.7677298 -3.2925205 0.2715481 -2.987029 -2.2402718
-0.6449267 1.8329496 0.9843618 -3.3943512 2.4099894 -0.47520918 -3.0549161 0.37337863
1.2898535 1.2559099 -0.8146443 0.71281374 -3.0209725 -1.9347801 -2.9530854 -2.5118198
-2.6815374 0.6449267 1.1201359 -3.3943512 -2.579707 -3.4961817 2.5118198 -1.9687237
-3.5301251 -0.6109832 0.37337863 -3.8356168 2.6815374 -1.6971756 0.78070074 -3.4282947
-3.258577 0.6788702 -2.4439328 -3.4282947 0.95041835 -3.3943512 -3.3604076 0.37337863
00000000: afa7 48c2 45c2 43bd f581 4ab2 9c05 9beb
00000010: 311a 0c91 9f08 a8be ed36 1d9c 47f2 a60b
00000020: 2625 e815 a7c7 a9b6 b113 219c b499 4ac6
00000030: 98ee 0b8f 4fce 179b a014 b89b 1c9c 9d0b
