tf/jpeg/model.tflite (tflite, 15944 bytes, 3 tensors)

sequential/dense_2/MatMul i1 [64, 64] scale=0.002402196 zero_point=0
-0.19938226 0.08407686 0.038435135 0.028826352 0.08888125 -0.13692518 0.20899105 0.15854493
-0.024021959 -0.05284831 -0.14653395 0.1801647 -0.14653395 0.24742618 0.1753603 -0.27144814
-0.11530541 -0.22580642 -0.09849004 -0.11290321 0.06966368 -0.11290321 -0.16334933 -0.021619763
0.16575152 -0.08888125 0.081674665 0.23781739 0.038435135 -0.16094713 0.10089223 0.11050101
0.024021959 0.079272464 0.1825669 -0.1729581 0.2402196 -0.07687027 -0.14653395 -0.07687027
-0.13212077 0.019217568 0.1801647 -0.16334933 -0.25703496 -0.08888125 0.10809882 -0.18496908
0.19217567 -0.12731639 -0.2402196 0.05284831 -0.22340423 0.21859983 0.1801647 -0.050446115
-0.1825669 0.15133834 0.14893615 0.22820862 -0.14893615 -0.13692518 -0.031228548 -0.014413176
-0.096087836 0.009608784 0.031228548 -0.25463277 0.062457096 -0.10809882 -0.096087836 0.26904595
0.1201098 0.08888125 -0.13692518 0.096087836 -0.12731639 0.004804392 0.11290321 -0.007206588
-0.05284831 0.10809882 -0.10089223 0.10569662 0.12971859 0.22340423 -0.038435135 -0.16815372
-0.21619764 0.057652704 0.050446115 -0.096087836 0.103294425 -0.11530541 -0.057652704 -0.12251199
-0.13692518 0.038435135 -0.14653395 0.11530541 -0.057652704 0.09128345 0.031228548 0.09849004
0.033630744 -0.13692518 0.24742618 0.1801647 -0.007206588 0.038435135 -0.20658885 -0.16815372
-0.15854493 0.12491419 0.07687027 0.21139324 -0.23061082 0.11050101 -0.13452297 -0.055250507
0.007206588 -0.016815372 -0.1201098 0.05284831 0.3050789 0.23061082 -0.002402196 0.16334933
0.10089223 0.13692518 0.0 0.13212077 0.16575152 -0.18977349 -0.19217567 0.15614274
-0.14653395 -0.13212077 -0.07687027 -0.019217568 0.16094713 0.19217567 -0.0600549 0.1753603
0.05284831 -0.019217568 -0.021619763 -0.081674665 0.048043918 -0.009608784 -0.062457096 -0.048043918
0.0600549 0.019217568 -0.19217567 -0.050446115 0.15614274 -0.15614274 0.14413175 -0.14172956
0.057652704 0.031228548 -0.21619764 -0.13212077 0.13212077 0.031228548 -0.11530541 0.007206588
0.15614274 -0.08888125 -0.026424155 0.1729581 -0.11050101 0.0120109795 -0.08647905 0.13452297
-0.18977349 -0.062457096 0.045641724 0.10089223 -0.12491419 -0.036032937 0.10809882 -0.08888125
0.09128345 -0.055250507 0.13932736 0.016815372 -0.1777625 0.1777625 -0.14653395 -0.002402196
-0.18737128 0.12251199 0.1705559 0.13932736 0.0 0.14893615 0.12971859 0.0120109795
0.062457096 -0.19457787 0.031228548 -0.09849004 0.048043918 0.009608784 0.1705559 -0.12251199
0.040837333 0.072065875 -0.014413176 -0.21379544 -0.09128345 -0.05284831 0.08647905 0.06726149
0.05284831 0.12251199 -0.10089223 -0.21139324 -0.12971859 -0.08647905 -0.21139324 0.1177076
-0.103294425 -0.2402196 -0.16094713 -0.021619763 0.040837333 0.014413176 -0.036032937 0.038435135
-0.12731639 0.16815372 -0.1825669 -0.11290321 -0.1825669 -0.0120109795 0.13932736 0.081674665
0.10569662 -0.021619763 0.14653395 0.15614274 -0.074468076 -0.055250507 0.14653395 -0.14413175
0.028826352 0.0120109795 0.10809882 0.08647905 0.002402196 -0.079272464 0.13212077 -0.1825669
00000000: ad23 100c 25c7 5742 f6ea c34b c367 498f
00000010: d0a2 d7d1 1dd1 bcf7 45db 2263 10bd 2a2e
00000020: 0a21 4cb8 64e0 c3e0 c908 4bbc 95db 2db3
00000030: 50cb 9c16 a35b 4beb b43f 3e5f c2c7 f3fa
00000040: d804 0d96 1ad3 d870 3225 c728 cb02 2ffd
00000050: ea2d d62c 365d f0ba a618 15d8 2bd0 e8cd
00000060: c710 c330 e826 0d29 0ec7 674b fd10 aaba
00000070: be34 2058 a02e c8e9 03f9 ce16 7f60 ff44
00000080: 2a39 0037 45b1 b041 c3c9 e0f8 4350 e749
00000090: 16f8 f7de 14fc e6ec 1908 b0eb 41bf 3cc5
000000a0: 180d a6c9 370d d003 41db f548 d205 dc38
000000b0: b1e6 132a ccf1 2ddb 26e9 3a07 b64a c3ff
000000c0: b233 473a 003e 3605 1aaf 0dd7 1404 47cd
000000d0: 111e faa7 daea 241c 1633 d6a8 cadc a831
000000e0: d59c bdf7 1106 f110 cb46 b4d1 b4fb 3a22
000000f0: 2cf7 3d41 e1e9 3dc4 0c05 2d24 01df 37b4

sequential/dense_1/MatMul i1 [64, 64] scale=0.00201721 zero_point=0
-0.09480887 0.02824094 -0.05849909 0.10892934 -0.05244746 0.17751448 -0.17751448 -0.0605163
0.13918748 0.04639583 -0.10892934 -0.05244746 -0.07665398 0.06858514 -0.14725633 -0.01613768
0.08875724 -0.16742843 0.1008605 0.01412047 -0.14322191 -0.17348006 0.00403442 -0.201721
-0.21180706 0.15734237 -0.04639583 -0.0806884 -0.13515307 0.01412047 0.02824094 0.15330796
0.11094655 -0.1815489 0.09682608 -0.14927354 -0.05849909 0.09279166 -0.163394 0.09480887
0.15935959 -0.11699818 -0.1613768 0.05446467 0.05244746 -0.19566937 0.00201721 0.02420652
-0.06656793 -0.17348006 0.01412047 0.00403442 0.02420652 -0.13918748 0.06253351 0.17549726
-0.21987589 -0.13918748 -0.15935959 0.08270561 -0.2218931 0.15330796 -0.23197915 0.13111866
0.10489492 0.04639583 -0.13313586 -0.08270561 0.1613768 -0.1412047 -0.05446467 0.16541122
0.14523911 -0.11498097 -0.12708423 0.12304981 -0.102877714 -0.02420652 0.03227536 -0.01008605
-0.09884329 0.09480887 -0.08674003 0.15129074 0.23803078 -0.0605163 -0.03630978 0.20575543
0.09682608 -0.12506703 -0.06656793 0.05043025 -0.12506703 0.17751448 0.13717028 -0.09279166
0.19163495 0.1613768 0.16742843 -0.03832699 -0.03227536 0.12506703 0.18356611 -0.14927354
0.11296376 0.01412047 -0.1210326 -0.0403442 -0.14322191 -0.11094655 -0.02420652 0.05648188
0.15330796 0.21382426 0.1210326 0.11498097 0.18961774 0.18558332 0.07665398 -0.11296376
0.1412047 0.12708423 0.13515307 -0.11296376 -0.18961774 0.13918748 0.12304981 0.00806884
0.10691213 -0.05244746 -0.07867119 -0.09480887 0.04437862 -0.04236141 -0.00806884 0.07665398
0.14927354 -0.05446467 -0.05849909 -0.03429257 -0.20978984 -0.13515307 0.06455072 -0.13313586
-0.09682608 -0.14322191 0.14322191 0.03227536 0.05648188 0.10691213 0.13313586 -0.16742843
0.06253351 0.11094655 -0.12506703 0.05043025 0.01412047 -0.07665398 -0.09480887 0.11296376
0.0403442 0.14523911 -0.18356611 -0.10489492 -0.15935959 -0.20575543 0.12506703 0.12304981
-0.04437862 0.04437862 -0.00201721 -0.07867119 -0.13313586 -0.17348006 0.02824094 -0.14523911
0.10892934 0.09077445 0.15129074 -0.1008605 0.09682608 0.15129074 -0.13313586 0.06455072
0.00605163 -0.09480887 0.10489492 -0.0806884 -0.10892934 -0.12708423 0.09077445 -0.17146285
-0.02420652 -0.01613768 0.03832699 0.21382426 -0.14927354 0.0403442 0.102877714 0.07060235
0.02622373 -0.08674003 -0.08472282 0.03630978 0.20978984 0.10489492 0.11901539 0.00403442
0.01210326 -0.06858514 -0.15532517 -0.00201721 0.13111866 0.14927354 0.0 -0.09480887
-0.16541122 0.14927354 0.01412047 -0.03227536 -0.16944563 -0.02622373 -0.04639583 0.08875724
-0.12304981 0.11498097 -0.06253351 -0.06858514 -0.13313586 -0.163394 0.11094655 -0.1815489
0.1412047 0.14725633 0.17146285 -0.08875724 -0.04236141 0.05849909 0.09480887 -0.1815489
0.04639583 -0.07867119 -0.01613768 -0.08674003 0.0605163 0.03227536 -0.09279166 -0.06253351
-0.14725633 -0.01210326 -0.01412047 0.07060235 -0.05648188 0.09480887 0.17348006 0.1815489
00000000: d10e e336 e658 a8e2 4517 cae6 da22 b7f8
00000010: 2cad 3207 b9aa 029c 974e e9d8 bd07 0e4c
00000020: 37a6 30b6 e32e af2f 4fc6 b01b 1a9f 010c
00000030: dfaa 0702 0cbb 1f57 93bb b129 924c 8d41
00000040: 3417 bed7 50ba e552 48c7 c13d cdf4 10fb
00000050: cf2f d54b 76e2 ee66 30c2 df19 c258 44d2
00000060: 5f50 53ed f03e 5bb6 3807 c4ec b9c9 f41c
00000070: 4c6a 3c39 5e5c 26c8 463f 43c8 a245 3d04
00000080: 35e6 d9d1 16eb fc26 4ae5 e3ef 98bd 20be
00000090: d0b9 4710 1c35 42ad 1f37 c219 07da d138
000000a0: 1448 a5cc b19a 3e3d ea16 ffd9 beaa 0eb8
000000b0: 362d 4bce 304b be20 03d1 34d8 cac1 2dab
000000c0: f4f8 136a b614 3323 0dd5 d612 6834 3b02
000000d0: 06de b3ff 414a 00d1 ae4a 07f0 acf3 e92c
000000e0: c339 e1de beaf 37a6 4649 55d4 eb1d 2fa6
000000f0: 17d9 f8d5 1e10 d2e1 b7fa f923 e42f 565a

sequential/dense/MatMul i1 [64, 64] scale=0.0018553061 zero_point=0
0.11688428 0.09462061 -0.18924122 0.037106123 0.0612251 0.12616082 -0.05751449 0.044527344
0.064935714 -0.13914795 0.18181999 0.18924122 0.0612251 0.16883285 -0.029684898 0.14285856
0.1224502 0.074212246 0.14100327 -0.111318365 0.19480714 -0.111318365 0.15027979 -0.13729265
0.21892612 0.04267204 -0.07235694 -0.12616082 0.11873959 -0.12430551 -0.08534408 0.0612251
0.13914795 0.1539904 -0.16326694 0.064935714 -0.08905469 0.17996469 0.0018553061 0.08719939
0.15584572 -0.17625408 -0.07606755 -0.13729265 -0.11688428 0.12616082 0.07050163 0.111318365
-0.05194857 -0.009276531 0.22078143 -0.14285856 -0.14842449 -0.20593898 0.10204183 0.044527344
0.018553061 -0.13729265 0.005565918 -0.12801611 -0.17068817 0.009276531 0.090909995 -0.050093263
0.06864633 -0.022263672 -0.18738592 0.18924122 0.08348878 0.05194857 0.10946306 0.15955633
-0.04267204 -0.024118979 -0.21150489 -0.024118979 -0.009276531 0.07235694 0.12430551 0.17996469
-0.23005795 -0.029684898 -0.09462061 0.15027979 -0.08348878 0.1855306 -0.20779428 -0.04267204
-0.16141163 -0.14842449 -0.018553061 -0.15955633 0.016697755 -0.059369795 -0.12987143 0.096475914
0.04267204 0.035250816 0.17254347 0.053803876 0.17810938 0.08905469 0.031540204 0.0018553061
0.17625408 -0.08905469 0.10018653 0.20222837 -0.0018553061 0.014842449 -0.044527344 0.07606755
0.19109653 0.07792286 0.035250816 -0.035250816 -0.08905469 0.08163347 -0.18924122 0.13914795
0.13358204 0.20037305 -0.18924122 0.07235694 0.20779428 -0.04638265 -0.17996469 0.040816735
-0.08905469 0.20037305 0.055659182 -0.09462061 -0.0927653 0.03339551 0.1855306 -0.17254347
0.18924122 -0.048237957 -0.025974285 -0.19851775 -0.11317367 -0.18738592 -0.1224502 0.040816735
0.12430551 -0.08905469 0.1521351 0.0612251 0.1855306 0.11502898 0.2096496 0.014842449
-0.0074212244 -0.15955633 -0.16883285 0.16883285 -0.05194857 0.024118979 -0.1539904 0.13729265
0.11317367 0.2152155 -0.1205949 0.074212246 0.19480714 0.17810938 -0.19851775 0.10946306
-0.12987143 -0.15584572 0.1836753 -0.111318365 -0.064935714 -0.018553061 0.090909995 0.06679102
0.13172673 0.19480714 0.13543734 -0.016697755 0.12801611 0.074212246 -0.079778165 -0.17625408
-0.07606755 0.13914795 0.19109653 0.07050163 0.025974285 -0.020408368 -0.11873959 0.06864633
0.024118979 -0.18924122 -0.1224502 -0.21707082 -0.15770102 -0.17996469 -0.12430551 0.05194857
-0.12801611 0.0074212244 -0.20222837 -0.17068817 -0.0018553061 0.13914795 -0.14471388 -0.03339551
-0.08905469 0.08534408 0.055659182 0.21150489 0.08534408 0.19851775 0.090909995 0.15584572
0.08719939 -0.20222837 0.08719939 -0.0612251 -0.19295183 0.09833122 -0.11688428 0.027829591
0.111318365 -0.15770102 -0.0612251 0.15955633 -0.2152155 0.096475914 -0.059369795 0.17810938
-0.18924122 -0.009276531 -0.20222837 -0.105752446 0.20222837 -0.024118979 -0.10760775 -0.048237957
-0.14471388 0.096475914 0.16141163 0.08719939 0.21150489 -0.2133602 -0.17439878 0.11502898
0.096475914 0.17068817 -0.20222837 0.11317367 0.07050163 -0.14285856 0.020408368 0.03339551
00000000: 3f33 9a14 2144 e118 23b5 6266 215b f04d
00000010: 4228 4cc4 69c4 51b6 7617 d9bc 40bd d221
00000020: 4b53 a823 d061 012f 54a1 d7b6 c144 263c
00000030: e4fb 77b3 b091 3718 0ab6 03bb a405 31e5
00000040: 25f4 9b66 2d1c 3b56 e9f3 8ef3 fb27 4361
00000050: 84f0 cd51 d364 90e9 a9b0 f6aa 09e0 ba34
00000060: 1713 5d1d 6030 1101 5fd0 366d ff08 e829
00000070: 672a 13ed d02c 9a4b 486c 9a27 70e7 9f16
00000080: d06c 1ecd ce12 64a3 66e6 f295 c39b be16
00000090: 43d0 5221 643e 7108 fcaa a55b e40d ad4a
000000a0: 3d74 bf28 6960 953b baac 63c4 ddf6 3124
000000b0: 4769 49f7 4528 d5a1 d74b 6726 0ef5 c025
000000c0: 0d9a be8b ab9f bd1c bb04 93a4 ff4b b2ee
000000d0: d02e 1e72 2e6b 3154 2f93 2fdf 9835 c10f
000000e0: 3cab df56 8c34 e060 9afb 93c7 6df3 c6e6
000000f0: b234 572f 728d a23e 345c 933d 26b3 0b12
