tf/fft/model.tflite (tflite, 4272 bytes, 3 tensors)

sequential/dense_2/MatMul i1 [2, 32] scale=0.007400983 zero_point=0
0	0x0f	0.111014746
1	0xfa	-0.0444059
2	0x01	0.007400983
3	0x6a	0.7845042
4	0xf7	-0.066608846
5	0x0f	0.111014746
6	0x03	0.02220295
7	0xfc	-0.029603932
8	0x03	0.02220295
9	0xf8	-0.059207864
10	0x14	0.14801966
11	0x09	0.066608846
12	0x62	0.7252963
13	0xf7	-0.066608846
14	0xeb	-0.15542065
15	0x1f	0.22943047
16	0x0b	0.08141081
17	0x26	0.28123736
18	0x1e	0.22202949
19	0xf0	-0.11841573
20	0xfe	-0.014801966
21	0xff	-0.007400983
22	0x27	0.28863832
23	0xf9	-0.051806882
24	0x24	0.26643538
25	0x10	0.11841573
26	0xe7	-0.18502457
27	0x19	0.18502457
28	0xf1	-0.111014746
29	0xe4	-0.20722753
30	0xf9	-0.051806882
31	0x7f	0.93992484
32	0xe2	-0.22202949
33	0xf6	-0.07400983
34	0x0c	0.0888118
35	0xf2	-0.103613764
36	0xf4	-0.0888118
37	0x0d	0.09621278
38	0x0f	0.111014746
39	0xf0	-0.11841573
40	0x10	0.11841573
41	0xf2	-0.103613764
42	0xca	-0.39965308
43	0xe4	-0.20722753
44	0xf9	-0.051806882
45	0xba	-0.5180688
46	0xff	-0.007400983
47	0x0e	0.103613764
48	0xe3	-0.2146285
49	0xf8	-0.059207864
50	0xdd	-0.2590344
51	0xf9	-0.051806882
52	0x10	0.11841573
53	0x08	0.059207864
54	0xf9	-0.051806882
55	0xef	-0.12581672
56	0x00	0.0
57	0x0f	0.111014746
58	0xf6	-0.07400983
59	0x0f	0.111014746
60	0xf9	-0.051806882
61	0xe5	-0.19982654
62	0xf3	-0.09621278
63	0x24	0.26643538

sequential/dense_1/MatMul i1 [32, 32] scale=0.013155993 zero_point=0
0	0xc8	-0.7367356
1	0x1c	0.3683678
2	0xd4	-0.5788637
3	0xbe	-0.86829555
4	0x10	0.21049589
5	0x15	0.27627584
6	0x0a	0.13155994
7	0x1d	0.3815238
8	0x05	0.06577997
9	0x27	0.51308376
10	0xc8	-0.7367356
11	0xd4	-0.5788637
12	0x23	0.46045977
13	0xdc	-0.47361577
14	0xcc	-0.68411165
15	0xa1	-1.2498194
16	0xf1	-0.19733989
17	0x28	0.52623975
18	0xb1	-1.0393234
19	0xbc	-0.89460754
20	0x9f	-1.2761313
21	0x0d	0.17102791
22	0xa3	-1.2235074
23	0xc3	-0.80251557
24	0xa9	-1.1445714
25	0x12	0.23680788
26	0x0a	0.13155994
27	0xb2	-1.0261675
28	0xc9	-0.72357965
29	0xd5	-0.5657077
30	0xd8	-0.52623975
31	0x20	0.42099178
32	0xea	-0.28943184
33	0x1a	0.34205583
34	0xd4	-0.5788637
35	0xde	-0.44730377
36	0x17	0.30258784
37	0x02	0.026311986
38	0x29	0.5393957
39	0x1c	0.3683678
40	0x2d	0.5920197
41	0x04	0.052623972
42	0xe8	-0.31574383
43	0xef	-0.22365189
44	0x0e	0.1841839
45	0xf5	-0.14471592
46	0xd2	-0.6051757
47	0xcb	-0.69726765
48	0xf8	-0.105247945
49	0x27	0.51308376
50	0xd4	-0.5788637
51	0xee	-0.23680788
52	0xca	-0.71042365
53	0x16	0.28943184
54	0xf5	-0.14471592
55	0xe9	-0.30258784
56	0xe7	-0.32889983
57	0x2c	0.5788637
58	0x15	0.27627584
59	0xf3	-0.17102791
60	0xdd	-0.46045977
61	0xe8	-0.31574383
62	0xd4	-0.5788637
63	0x18	0.31574383
64	0x19	0.32889983
65	0xe2	-0.39467978
66	0x24	0.47361577
67	0x28	0.52623975
68	0xd9	-0.51308376
69	0xe2	-0.39467978
70	0xd3	-0.5920197
71	0xe2	-0.39467978
72	0xe8	-0.31574383
73	0xdb	-0.48677173
74	0x2a	0.5525517
75	0x14	0.26311988
76	0xed	-0.24996386
77	0x20	0.42099178
78	0x2f	0.6183317
79	0x2b	0.5657077
80	0x01	0.013155993
81	0xd7	-0.5393957
82	0x25	0.48677173
83	0x39	0.7498916
84	0x23	0.46045977
85	0xcf	-0.64464366
86	0x1e	0.39467978
87	0x1a	0.34205583
88	0x39	0.7498916
89	0xec	-0.26311988
90	0xf3	-0.17102791
91	0x12	0.23680788
92	0x05	0.06577997
93	0x1c	0.3683678
94	0x20	0.42099178
95	0xf0	-0.21049589
96	0xb8	-0.94723153
97	0x0e	0.1841839
98	0x9f	-1.2761313
99	0xb7	-0.96038747
100	0x08	0.105247945
101	0xfe	-0.026311986
102	0x1f	0.40783578
103	0x04	0.052623972
104	0x11	0.22365189
105	0x00	0.0
106	0xc1	-0.82882756
107	0xb9	-0.93407553
108	0x12	0.23680788
109	0xd0	-0.63148767
110	0xb1	-1.0393234
111	0x8f	-1.4866272
112	0x0f	0.19733989
113	0xf4	-0.15787192
114	0x97	-1.3813792
115	0xaa	-1.1314154
116	0xad	-1.0919474
117	0xf7	-0.11840394
118	0xa3	-1.2235074
119	0xa7	-1.1708834
120	0xb9	-0.93407553
121	0x1b	0.35521182
122	0x0b	0.14471592
123	0xa9	-1.1445714
124	0xd1	-0.6183317
125	0xa7	-1.1708834
126	0x9c	-1.3155993
127	0x00	0.0
128	0xc9	-0.72357965
129	0x2b	0.5657077
130	0xbf	-0.85513955
131	0xcf	-0.64464366
132	0x0e	0.1841839
133	0x14	0.26311988
134	0x17	0.30258784
135	0x1e	0.39467978
136	0x2e	0.6051757
137	0x3e	0.81567156
138	0xe3	-0.3815238
139	0xd8	-0.52623975
140	0x33	0.67095566
141	0xef	-0.22365189
142	0xe4	-0.3683678
143	0xc1	-0.82882756
144	0x12	0.23680788
145	0x39	0.7498916
146	0xb8	-0.94723153
147	0xe6	-0.34205583
148	0xbf	-0.85513955
149	0x39	0.7498916
150	0xc0	-0.84198356
151	0xcf	-0.64464366
152	0xe4	-0.3683678
153	0x39	0.7498916
154	0x3a	0.7630476
155	0xba	-0.92091954
156	0xca	-0.71042365
157	0xdf	-0.43414778
158	0xe8	-0.31574383
159	0x28	0.52623975
160	0x06	0.07893596
161	0xd8	-0.52623975
162	0x14	0.26311988
163	0x27	0.51308376
164	0xc8	-0.7367356
165	0xd0	-0.63148767
166	0xe3	-0.3815238
167	0xdb	-0.48677173
168	0xd9	-0.51308376
169	0xca	-0.71042365
170	0x06	0.07893596
171	0x19	0.32889983
172	0xcb	-0.69726765
173	0x17	0.30258784
174	0x1b	0.35521182
175	0x29	0.5393957
176	0xf8	-0.105247945
177	0xe2	-0.39467978
178	0x32	0.65779966
179	0x29	0.5393957
180	0x2e	0.6051757
181	0xcd	-0.67095566
182	0x26	0.49992773
183	0x15	0.27627584
184	0x05	0.06577997
185	0xd1	-0.6183317
186	0xde	-0.44730377
187	0x1f	0.40783578
188	0x25	0.48677173
189	0x12	0.23680788
190	0x27	0.51308376
191	0xc5	-0.7762036
192	0x30	0.63148767
193	0xe8	-0.31574383
194	0x1b	0.35521182
195	0x47	0.93407553
196	0xe8	-0.31574383
197	0xc2	-0.81567156
198	0xde	-0.44730377
199	0xdb	-0.48677173
200	0xbd	-0.88145155
201	0xd4	-0.5788637
202	0x12	0.23680788
203	0x37	0.72357965
204	0xd9	-0.51308376
205	0x1e	0.39467978
206	0x35	0.69726765
207	0x48	0.94723153
208	0xe6	-0.34205583
209	0xca	-0.71042365
210	0x2c	0.5788637
211	0x2f	0.6183317
212	0x2a	0.5525517
213	0xce	-0.65779966
214	0x3d	0.80251557
215	0x43	0.88145155
216	0x48	0.94723153
217	0xdb	-0.48677173
218	0xd1	-0.6183317
219	0x33	0.67095566
220	0x2c	0.5788637
221	0x3f	0.82882756
222	0x1e	0.39467978
223	0xdc	-0.47361577
224	0xd6	-0.5525517
225	0x24	0.47361577
226	0xc9	-0.72357965
227	0xc6	-0.7630476
228	0x2b	0.5657077
229	0x14	0.26311988
230	0x13	0.24996386
231	0x27	0.51308376
232	0x27	0.51308376
233	0x08	0.105247945
234	0xea	-0.28943184
235	0xed	-0.24996386
236	0x32	0.65779966
237	0xe2	-0.39467978
238	0xcd	-0.67095566
239	0xd2	-0.6051757
240	0x18	0.31574383
241	0x15	0.27627584
242	0xbd	-0.88145155
243	0xc3	-0.80251557
244	0xde	-0.44730377
245	0x1f	0.40783578
246	0xbb	-0.90776354
247	0xc0	-0.84198356
248	0xd7	-0.5393957
249	0x20	0.42099178
250	0x0e	0.1841839
251	0xd0	-0.63148767
252	0xd6	-0.5525517
253	0xcc	-0.68411165
254	0xca	-0.71042365
255	0x0f	0.19733989

sequential/dense/MatMul i1 [32, 1] scale=0.17139883 zero_point=0
0	0xe4	-4.799167
1	0x1a	4.45637
2	0xe5	-4.6277685
3	0xe2	-5.141965
4	0x1b	4.6277685
5	0x1b	4.6277685
6	0x1a	4.45637
7	0x19	4.2849708
8	0x1c	4.799167
9	0x1a	4.45637
10	0xe9	-3.9421732
11	0xe6	-4.45637
12	0x1a	4.45637
13	0xeb	-3.5993755
14	0xe6	-4.45637
15	0xe1	-5.313364
16	0x05	0.85699415
17	0x19	4.2849708
18	0xdf	-5.6561613
19	0xe3	-4.9705663
20	0xe0	-5.4847627
21	0x18	4.113572
22	0xe1	-5.313364
23	0xe3	-4.9705663
24	0xe2	-5.141965
25	0x1b	4.6277685
26	0x1c	4.799167
27	0xe2	-5.141965
28	0xe8	-4.113572
29	0xe4	-4.799167
30	0xe5	-4.6277685
31	0x1a	4.45637
