edgetpu-models/models/sobel/model.tflite (tflite, 2352 bytes, 2 tensors)

sequential/dense_1/MatMul i1 [1, 8] scale=0.0072611067 zero_point=0
0	0x39	0.4138831
1	0x1f	0.2250943
2	0x23	0.25413874
3	0xc9	-0.39936087
4	0xc9	-0.39936087
5	0xc7	-0.4138831
6	0x7f	0.92216057
7	0x4d	0.5591052

sequential/dense/MatMul i1 [8, 9] scale=0.007873385 zero_point=0
0	0xd7	-0.3228088
1	0x72	0.8975659
2	0xf7	-0.07086047
3	0x1f	0.24407494
4	0x51	0.6377442
5	0x3e	0.48814988
6	0x21	0.2598217
7	0xc2	-0.48814988
8	0xc9	-0.43303618
9	0x86	-0.960553
10	0xe3	-0.22832817
11	0x01	0.007873385
12	0xf3	-0.102354005
13	0x72	0.8975659
14	0xcd	-0.40154263
15	0x3e	0.48814988
16	0xd0	-0.37792248
17	0xd5	-0.33855557
18	0x0f	0.11810078
19	0x70	0.8818191
20	0x03	0.023620155
21	0xb0	-0.62987083
22	0x30	0.37792248
23	0xd6	-0.3306822
24	0xc1	-0.49602327
25	0xf8	-0.06298708
26	0x89	-0.93693286
27	0x7f	0.99991995
28	0x0d	0.102354005
29	0x43	0.5275168
30	0x31	0.38579586
31	0xf4	-0.09448062
32	0xb8	-0.56688374
33	0x07	0.055113696
34	0x05	0.039366927
35	0xf0	-0.12597416
36	0x77	0.93693286
37	0x01	0.007873385
38	0xd4	-0.34642896
39	0x31	0.38579586
40	0xf6	-0.078733854
41	0xdc	-0.28344187
42	0x3a	0.45665634
43	0x63	0.77946514
44	0xc7	-0.44878295
45	0xea	-0.17321448
46	0xe7	-0.19683462
47	0x59	0.7007313
48	0x2f	0.37004912
49	0xad	-0.65349096
50	0xd0	-0.37792248
51	0xec	-0.15746771
52	0x5f	0.7479716
53	0x2b	0.33855557
54	0xe4	-0.22045478
55	0x3e	0.48814988
56	0x97	-0.82670546
57	0xfb	-0.039366927
58	0x21	0.2598217
59	0xe7	-0.19683462
60	0x06	0.04724031
61	0xf8	-0.06298708
62	0xf2	-0.11022739
63	0xf0	-0.12597416
64	0x1f	0.24407494
65	0xdd	-0.2755685
66	0xde	-0.2676951
67	0x01	0.007873385
68	0x32	0.39366925
69	0x49	0.5747571
70	0xc8	-0.44090956
71	0xcd	-0.40154263
